************************************************************************************************************************
ViTBasicForImageClassification(
  (embedding_layer): Sequential(
    (0): Conv2d(3, 768, kernel_size=(16, 16), stride=(16, 16))
    (1): Rearrange('b d ph pw -> b (ph pw) d')
  )
  (additional_class_tokens): ParameterList(
      (0): Parameter containing: [torch.float32 of size 1x1x768 (GPU 0)]
      (1): Parameter containing: [torch.float32 of size 1x1x768 (GPU 0)]
  )
  (mlp_heads): ModuleList(
    (0): Linear(in_features=768, out_features=2, bias=True)
    (1): Linear(in_features=768, out_features=10, bias=True)
  )
  (positional_embedding): PositionalEmbedding1D()
  (transformer_encoder): TransformerEncoder(
    (tf_blocks): ModuleList(
      (0-11): 12 x TransformerBlock(
        (mha): MultiHeadAttention(
          (query_layer): Linear(in_features=768, out_features=768, bias=True)
          (key_layer): Linear(in_features=768, out_features=768, bias=True)
          (value_layer): Linear(in_features=768, out_features=768, bias=True)
          (out_proj): Linear(in_features=768, out_features=768, bias=True)
          (dropout): Dropout(p=0.0, inplace=False)
        )
        (layer_norm_1): LayerNorm((768,), eps=1e-06, elementwise_affine=True)
        (pos_wise_ff_layer): PositionWiseFeedForward(
          (pos_wise_feed_forward): Sequential(
            (0): Linear(in_features=768, out_features=3072, bias=True)
            (1): GELU(approximate='none')
            (2): Dropout(p=0.0, inplace=False)
            (3): Linear(in_features=3072, out_features=768, bias=True)
            (4): Dropout(p=0.0, inplace=False)
          )
        )
        (layer_norm_2): LayerNorm((768,), eps=1e-06, elementwise_affine=True)
        (dropout): Dropout(p=0.0, inplace=False)
      )
    )
  )
  (final_layer_norm): LayerNorm((768,), eps=1e-06, elementwise_affine=True)
)
Experiment:  vit-b-16-cifar10-full-train-fine-broad-alternate-30-epochs_1693558459
Starting Broad Fine Alternate Class Training...
Starting Train/Eval...

Epoch: 0
Mode: MODE.TRAIN
Losses: 0.4065633869879996
Metrics: {}
Best Acc@1_fine till now: -1

************************************************************************************************************************
ViTBasicForImageClassification(
  (embedding_layer): Sequential(
    (0): Conv2d(3, 768, kernel_size=(16, 16), stride=(16, 16))
    (1): Rearrange('b d ph pw -> b (ph pw) d')
  )
  (additional_class_tokens): ParameterList(
      (0): Parameter containing: [torch.float32 of size 1x1x768 (GPU 0)]
      (1): Parameter containing: [torch.float32 of size 1x1x768 (GPU 0)]
  )
  (mlp_heads): ModuleList(
    (0): Linear(in_features=768, out_features=2, bias=True)
    (1): Linear(in_features=768, out_features=10, bias=True)
  )
  (positional_embedding): PositionalEmbedding1D()
  (transformer_encoder): TransformerEncoder(
    (tf_blocks): ModuleList(
      (0-11): 12 x TransformerBlock(
        (mha): MultiHeadAttention(
          (query_layer): Linear(in_features=768, out_features=768, bias=True)
          (key_layer): Linear(in_features=768, out_features=768, bias=True)
          (value_layer): Linear(in_features=768, out_features=768, bias=True)
          (out_proj): Linear(in_features=768, out_features=768, bias=True)
          (dropout): Dropout(p=0.0, inplace=False)
        )
        (layer_norm_1): LayerNorm((768,), eps=1e-06, elementwise_affine=True)
        (pos_wise_ff_layer): PositionWiseFeedForward(
          (pos_wise_feed_forward): Sequential(
            (0): Linear(in_features=768, out_features=3072, bias=True)
            (1): GELU(approximate='none')
            (2): Dropout(p=0.0, inplace=False)
            (3): Linear(in_features=3072, out_features=768, bias=True)
            (4): Dropout(p=0.0, inplace=False)
          )
        )
        (layer_norm_2): LayerNorm((768,), eps=1e-06, elementwise_affine=True)
        (dropout): Dropout(p=0.0, inplace=False)
      )
    )
  )
  (final_layer_norm): LayerNorm((768,), eps=1e-06, elementwise_affine=True)
)
Experiment:  vit-b-16-cifar10-full-train-fine-broad-alternate-30-epochs_1693564110
Starting Broad Fine Alternate Class Training...
Starting Train/Eval...
[tensor(0.6496, device='cuda:0', grad_fn=<NllLossBackward0>), tensor(2.4756, device='cuda:0', grad_fn=<NllLossBackward0>)]
{'Acc@1_broad': tensor(0.5469), 'Acc@1_fine': tensor(0.0781)}
[tensor(0.8083, device='cuda:0', grad_fn=<NllLossBackward0>), tensor(2.5119, device='cuda:0', grad_fn=<NllLossBackward0>)]
…
{'Acc@1_broad': tensor(0.7812), 'Acc@1_fine': tensor(0.0938)}
[tensor(0.5928, device='cuda:0', grad_fn=<NllLossBackward0>), tensor(2.4167, device='cuda:0', grad_fn=<NllLossBackward0>)]
{'Acc@1_broad': tensor(0.6875), 'Acc@1_fine': tensor(0.0625)}
[tensor(0.5053, device='cuda:0', grad_fn=<NllLossBackward0>), tensor(2.4694, device='cuda:0', grad_fn=<NllLossBackward0>)]
{'Acc@1_broad': tensor(0.7656), 'Acc@1_fine': tensor(0.0781)}
************************************************************************************************************************
ViTBasicForImageClassification(
  (embedding_layer): Sequential(
    (0): Conv2d(3, 768, kernel_size=(16, 16), stride=(16, 16))
    (1): Rearrange('b d ph pw -> b (ph pw) d')
  )
  (additional_class_tokens): ParameterList(
      (0): Parameter containing: [torch.float32 of size 1x1x768 (GPU 0)]
      (1): Parameter containing: [torch.float32 of size 1x1x768 (GPU 0)]
  )
  (mlp_heads): ModuleList(
    (0): Linear(in_features=768, out_features=2, bias=True)
    (1): Linear(in_features=768, out_features=10, bias=True)
  )
  (positional_embedding): PositionalEmbedding1D()
  (transformer_encoder): TransformerEncoder(
    (tf_blocks): ModuleList(
      (0-11): 12 x TransformerBlock(
        (mha): MultiHeadAttention(
          (query_layer): Linear(in_features=768, out_features=768, bias=True)
          (key_layer): Linear(in_features=768, out_features=768, bias=True)
          (value_layer): Linear(in_features=768, out_features=768, bias=True)
          (out_proj): Linear(in_features=768, out_features=768, bias=True)
          (dropout): Dropout(p=0.0, inplace=False)
        )
        (layer_norm_1): LayerNorm((768,), eps=1e-06, elementwise_affine=True)
        (pos_wise_ff_layer): PositionWiseFeedForward(
          (pos_wise_feed_forward): Sequential(
            (0): Linear(in_features=768, out_features=3072, bias=True)
            (1): GELU(approximate='none')
            (2): Dropout(p=0.0, inplace=False)
            (3): Linear(in_features=3072, out_features=768, bias=True)
            (4): Dropout(p=0.0, inplace=False)
          )
        )
        (layer_norm_2): LayerNorm((768,), eps=1e-06, elementwise_affine=True)
        (dropout): Dropout(p=0.0, inplace=False)
      )
    )
  )
  (final_layer_norm): LayerNorm((768,), eps=1e-06, elementwise_affine=True)
)
Experiment:  vit-b-16-cifar10-full-train-fine-broad-alternate-30-epochs_1693564250
Starting Broad Fine Alternate Class Training...
Starting Train/Eval...
[tensor(0.6496, device='cuda:0', grad_fn=<NllLossBackward0>), tensor(2.4756, device='cuda:0', grad_fn=<NllLossBackward0>)]
{'Acc@1_broad': tensor(0.5469), 'Acc@1_fine': tensor(0.0781)}

Epoch: 0
Mode: MODE.TRAIN
Losses: 0.6495742797851562
Metrics: {}
Best Acc@1_fine till now: -1

************************************************************************************************************************
ViTBasicForImageClassification(
  (embedding_layer): Sequential(
    (0): Conv2d(3, 768, kernel_size=(16, 16), stride=(16, 16))
    (1): Rearrange('b d ph pw -> b (ph pw) d')
  )
  (additional_class_tokens): ParameterList(
      (0): Parameter containing: [torch.float32 of size 1x1x768 (GPU 0)]
      (1): Parameter containing: [torch.float32 of size 1x1x768 (GPU 0)]
  )
  (mlp_heads): ModuleList(
    (0): Linear(in_features=768, out_features=2, bias=True)
    (1): Linear(in_features=768, out_features=10, bias=True)
  )
  (positional_embedding): PositionalEmbedding1D()
  (transformer_encoder): TransformerEncoder(
    (tf_blocks): ModuleList(
      (0-11): 12 x TransformerBlock(
        (mha): MultiHeadAttention(
          (query_layer): Linear(in_features=768, out_features=768, bias=True)
          (key_layer): Linear(in_features=768, out_features=768, bias=True)
          (value_layer): Linear(in_features=768, out_features=768, bias=True)
          (out_proj): Linear(in_features=768, out_features=768, bias=True)
          (dropout): Dropout(p=0.0, inplace=False)
        )
        (layer_norm_1): LayerNorm((768,), eps=1e-06, elementwise_affine=True)
        (pos_wise_ff_layer): PositionWiseFeedForward(
          (pos_wise_feed_forward): Sequential(
            (0): Linear(in_features=768, out_features=3072, bias=True)
            (1): GELU(approximate='none')
            (2): Dropout(p=0.0, inplace=False)
            (3): Linear(in_features=3072, out_features=768, bias=True)
            (4): Dropout(p=0.0, inplace=False)
          )
        )
        (layer_norm_2): LayerNorm((768,), eps=1e-06, elementwise_affine=True)
        (dropout): Dropout(p=0.0, inplace=False)
      )
    )
  )
  (final_layer_norm): LayerNorm((768,), eps=1e-06, elementwise_affine=True)
)
Experiment:  vit-b-16-cifar10-full-train-fine-broad-alternate-30-epochs_1693564390
Starting Broad Fine Alternate Class Training...
Starting Train/Eval...
[tensor(0.6496, device='cuda:0', grad_fn=<NllLossBackward0>), tensor(2.4756, device='cuda:0', grad_fn=<NllLossBackward0>)]
{'Acc@1_broad': tensor(0.5469), 'Acc@1_fine': tensor(0.0781)}
Ep Metrics is defaultdict(<class 'list'>, {})

Epoch: 0
Mode: MODE.TRAIN
Losses: 2.47558856010437
Metrics: {}
Best Acc@1_fine till now: -1

************************************************************************************************************************
ViTBasicForImageClassification(
  (embedding_layer): Sequential(
    (0): Conv2d(3, 768, kernel_size=(16, 16), stride=(16, 16))
    (1): Rearrange('b d ph pw -> b (ph pw) d')
  )
  (additional_class_tokens): ParameterList(
      (0): Parameter containing: [torch.float32 of size 1x1x768 (GPU 0)]
      (1): Parameter containing: [torch.float32 of size 1x1x768 (GPU 0)]
  )
  (mlp_heads): ModuleList(
    (0): Linear(in_features=768, out_features=2, bias=True)
    (1): Linear(in_features=768, out_features=10, bias=True)
  )
  (positional_embedding): PositionalEmbedding1D()
  (transformer_encoder): TransformerEncoder(
    (tf_blocks): ModuleList(
      (0-11): 12 x TransformerBlock(
        (mha): MultiHeadAttention(
          (query_layer): Linear(in_features=768, out_features=768, bias=True)
          (key_layer): Linear(in_features=768, out_features=768, bias=True)
          (value_layer): Linear(in_features=768, out_features=768, bias=True)
          (out_proj): Linear(in_features=768, out_features=768, bias=True)
          (dropout): Dropout(p=0.0, inplace=False)
        )
        (layer_norm_1): LayerNorm((768,), eps=1e-06, elementwise_affine=True)
        (pos_wise_ff_layer): PositionWiseFeedForward(
          (pos_wise_feed_forward): Sequential(
            (0): Linear(in_features=768, out_features=3072, bias=True)
            (1): GELU(approximate='none')
            (2): Dropout(p=0.0, inplace=False)
            (3): Linear(in_features=3072, out_features=768, bias=True)
            (4): Dropout(p=0.0, inplace=False)
          )
        )
        (layer_norm_2): LayerNorm((768,), eps=1e-06, elementwise_affine=True)
        (dropout): Dropout(p=0.0, inplace=False)
      )
    )
  )
  (final_layer_norm): LayerNorm((768,), eps=1e-06, elementwise_affine=True)
)
Experiment:  vit-b-16-cifar10-full-train-fine-broad-alternate-30-epochs_1693564443
Starting Broad Fine Alternate Class Training...
Starting Train/Eval...
[tensor(0.6496, device='cuda:0', grad_fn=<NllLossBackward0>), tensor(2.4756, device='cuda:0', grad_fn=<NllLossBackward0>)]
{'Acc@1_broad': tensor(0.5469), 'Acc@1_fine': tensor(0.0781)}
Ep Metrics is defaultdict(<class 'list'>, {'Acc@1_broad_broad': [tensor(0.5469)], 'Acc@1_broad_fine': [tensor(0.5469)], 'Acc@1_fine_broad': [tensor(0.0781)], 'Acc@1_fine_fine': [tensor(0.0781)]})
…
