****************************************************************************************************
ViTBasicForImageClassification(
  (embedding_layer): Sequential(
    (0): Conv2d(3, 384, kernel_size=(8, 8), stride=(8, 8))
    (1): Rearrange('b d ph pw -> b (ph pw) d')
  )
  (additional_class_tokens): ParameterList(  (0): Parameter containing: [torch.float32 of size 1x1x384])
  (mlp_heads): ModuleList(
    (0): Linear(in_features=384, out_features=10, bias=True)
  )
  (positional_embedding): PositionalEmbedding1D()
  (transformer_encoder): TransformerEncoder(
    (tf_blocks): ModuleList(
      (0-6): 7 x TransformerBlock(
        (mha): MultiHeadAttention(
          (query_layer): Linear(in_features=384, out_features=384, bias=True)
          (key_layer): Linear(in_features=384, out_features=384, bias=True)
          (value_layer): Linear(in_features=384, out_features=384, bias=True)
          (out_proj): Linear(in_features=384, out_features=384, bias=True)
          (dropout): Dropout(p=0.0, inplace=False)
        )
        (layer_norm_1): LayerNorm((384,), eps=1e-12, elementwise_affine=True)
        (pos_wise_ff_layer): PositionWiseFeedForward(
          (pos_wise_feed_forward): Sequential(
            (0): Linear(in_features=384, out_features=384, bias=True)
            (1): GELU(approximate='none')
            (2): Dropout(p=0.0, inplace=False)
            (3): Linear(in_features=384, out_features=384, bias=True)
            (4): Dropout(p=0.0, inplace=False)
          )
        )
        (layer_norm_2): LayerNorm((384,), eps=1e-12, elementwise_affine=True)
        (dropout): Dropout(p=0.0, inplace=False)
      )
    )
  )
  (final_layer_norm): LayerNorm((384,), eps=1e-05, elementwise_affine=True)
)
torch.Size([32, 10])
Last Saved Model Validation Accuracy: -1
****************************************************************************************************
ViTBasicForImageClassification(
  (embedding_layer): Sequential(
    (0): Conv2d(3, 384, kernel_size=(8, 8), stride=(8, 8))
    (1): Rearrange('b d ph pw -> b (ph pw) d')
  )
  (additional_class_tokens): ParameterList(  (0): Parameter containing: [torch.float32 of size 1x1x384])
  (mlp_heads): ModuleList(
    (0): Linear(in_features=384, out_features=10, bias=True)
  )
  (positional_embedding): PositionalEmbedding1D()
  (transformer_encoder): TransformerEncoder(
    (tf_blocks): ModuleList(
      (0-6): 7 x TransformerBlock(
        (mha): MultiHeadAttention(
          (query_layer): Linear(in_features=384, out_features=384, bias=True)
          (key_layer): Linear(in_features=384, out_features=384, bias=True)
          (value_layer): Linear(in_features=384, out_features=384, bias=True)
          (out_proj): Linear(in_features=384, out_features=384, bias=True)
          (dropout): Dropout(p=0.0, inplace=False)
        )
        (layer_norm_1): LayerNorm((384,), eps=1e-12, elementwise_affine=True)
        (pos_wise_ff_layer): PositionWiseFeedForward(
          (pos_wise_feed_forward): Sequential(
            (0): Linear(in_features=384, out_features=384, bias=True)
            (1): GELU(approximate='none')
            (2): Dropout(p=0.0, inplace=False)
            (3): Linear(in_features=384, out_features=384, bias=True)
            (4): Dropout(p=0.0, inplace=False)
          )
        )
        (layer_norm_2): LayerNorm((384,), eps=1e-12, elementwise_affine=True)
        (dropout): Dropout(p=0.0, inplace=False)
      )
    )
  )
  (final_layer_norm): LayerNorm((384,), eps=1e-05, elementwise_affine=True)
)
torch.Size([32, 10])
Last Saved Model Validation Accuracy: -1
****************************************************************************************************
ViTBasicForImageClassification(
  (embedding_layer): Sequential(
    (0): Conv2d(3, 384, kernel_size=(8, 8), stride=(8, 8))
    (1): Rearrange('b d ph pw -> b (ph pw) d')
  )
  (additional_class_tokens): ParameterList(  (0): Parameter containing: [torch.float32 of size 1x1x384])
  (mlp_heads): ModuleList(
    (0): Linear(in_features=384, out_features=10, bias=True)
  )
  (positional_embedding): PositionalEmbedding1D()
  (transformer_encoder): TransformerEncoder(
    (tf_blocks): ModuleList(
      (0-6): 7 x TransformerBlock(
        (mha): MultiHeadAttention(
          (query_layer): Linear(in_features=384, out_features=384, bias=True)
          (key_layer): Linear(in_features=384, out_features=384, bias=True)
          (value_layer): Linear(in_features=384, out_features=384, bias=True)
          (out_proj): Linear(in_features=384, out_features=384, bias=True)
          (dropout): Dropout(p=0.0, inplace=False)
        )
        (layer_norm_1): LayerNorm((384,), eps=1e-12, elementwise_affine=True)
        (pos_wise_ff_layer): PositionWiseFeedForward(
          (pos_wise_feed_forward): Sequential(
            (0): Linear(in_features=384, out_features=384, bias=True)
            (1): GELU(approximate='none')
            (2): Dropout(p=0.0, inplace=False)
            (3): Linear(in_features=384, out_features=384, bias=True)
            (4): Dropout(p=0.0, inplace=False)
          )
        )
        (layer_norm_2): LayerNorm((384,), eps=1e-12, elementwise_affine=True)
        (dropout): Dropout(p=0.0, inplace=False)
      )
    )
  )
  (final_layer_norm): LayerNorm((384,), eps=1e-05, elementwise_affine=True)
)
torch.Size([32, 10])
Last Saved Model Validation Accuracy: -1
****************************************************************************************************
ViTBasicForImageClassification(
  (embedding_layer): Sequential(
    (0): Conv2d(3, 384, kernel_size=(8, 8), stride=(8, 8))
    (1): Rearrange('b d ph pw -> b (ph pw) d')
  )
  (additional_class_tokens): ParameterList(  (0): Parameter containing: [torch.float32 of size 1x1x384])
  (mlp_heads): ModuleList(
    (0): Linear(in_features=384, out_features=10, bias=True)
  )
  (positional_embedding): PositionalEmbedding1D()
  (transformer_encoder): TransformerEncoder(
    (tf_blocks): ModuleList(
      (0-6): 7 x TransformerBlock(
        (mha): MultiHeadAttention(
          (query_layer): Linear(in_features=384, out_features=384, bias=True)
          (key_layer): Linear(in_features=384, out_features=384, bias=True)
          (value_layer): Linear(in_features=384, out_features=384, bias=True)
          (out_proj): Linear(in_features=384, out_features=384, bias=True)
          (dropout): Dropout(p=0.0, inplace=False)
        )
        (layer_norm_1): LayerNorm((384,), eps=1e-12, elementwise_affine=True)
        (pos_wise_ff_layer): PositionWiseFeedForward(
          (pos_wise_feed_forward): Sequential(
            (0): Linear(in_features=384, out_features=384, bias=True)
            (1): GELU(approximate='none')
            (2): Dropout(p=0.0, inplace=False)
            (3): Linear(in_features=384, out_features=384, bias=True)
            (4): Dropout(p=0.0, inplace=False)
          )
        )
        (layer_norm_2): LayerNorm((384,), eps=1e-12, elementwise_affine=True)
        (dropout): Dropout(p=0.0, inplace=False)
      )
    )
  )
  (final_layer_norm): LayerNorm((384,), eps=1e-05, elementwise_affine=True)
)
torch.Size([32, 10])
Last Saved Model Validation Accuracy: -1
****************************************************************************************************
ViTBasicForImageClassification(
  (embedding_layer): Sequential(
    (0): Conv2d(3, 384, kernel_size=(8, 8), stride=(8, 8))
    (1): Rearrange('b d ph pw -> b (ph pw) d')
  )
  (additional_class_tokens): ParameterList(  (0): Parameter containing: [torch.float32 of size 1x1x384])
  (mlp_heads): ModuleList(
    (0): Linear(in_features=384, out_features=10, bias=True)
  )
  (positional_embedding): PositionalEmbedding1D()
  (transformer_encoder): TransformerEncoder(
    (tf_blocks): ModuleList(
      (0-6): 7 x TransformerBlock(
        (mha): MultiHeadAttention(
          (query_layer): Linear(in_features=384, out_features=384, bias=True)
          (key_layer): Linear(in_features=384, out_features=384, bias=True)
          (value_layer): Linear(in_features=384, out_features=384, bias=True)
          (out_proj): Linear(in_features=384, out_features=384, bias=True)
          (dropout): Dropout(p=0.0, inplace=False)
        )
        (layer_norm_1): LayerNorm((384,), eps=1e-12, elementwise_affine=True)
        (pos_wise_ff_layer): PositionWiseFeedForward(
          (pos_wise_feed_forward): Sequential(
            (0): Linear(in_features=384, out_features=384, bias=True)
            (1): GELU(approximate='none')
            (2): Dropout(p=0.0, inplace=False)
            (3): Linear(in_features=384, out_features=384, bias=True)
            (4): Dropout(p=0.0, inplace=False)
          )
        )
        (layer_norm_2): LayerNorm((384,), eps=1e-12, elementwise_affine=True)
        (dropout): Dropout(p=0.0, inplace=False)
      )
    )
  )
  (final_layer_norm): LayerNorm((384,), eps=1e-05, elementwise_affine=True)
)
torch.Size([32, 10])
Last Saved Model Validation Accuracy: -1
torch.Size([128])
****************************************************************************************************
Exp: 2023-08-26 22:42:01.264798-hparams-omihub-autoaugment-on-out-proj-included-full-cifar-train
ViTBasicForImageClassification(
  (embedding_layer): Sequential(
    (0): Conv2d(3, 384, kernel_size=(2, 2), stride=(2, 2))
    (1): Rearrange('b d ph pw -> b (ph pw) d')
  )
  (additional_class_tokens): ParameterList(  (0): Parameter containing: [torch.float32 of size 1x1x384])
  (mlp_heads): ModuleList(
    (0): Linear(in_features=384, out_features=10, bias=True)
  )
  (positional_embedding): PositionalEmbedding1D()
  (transformer_encoder): TransformerEncoder(
    (tf_blocks): ModuleList(
      (0-6): 7 x TransformerBlock(
        (mha): MultiHeadAttention(
          (query_layer): Linear(in_features=384, out_features=384, bias=True)
          (key_layer): Linear(in_features=384, out_features=384, bias=True)
          (value_layer): Linear(in_features=384, out_features=384, bias=True)
          (out_proj): Linear(in_features=384, out_features=384, bias=True)
          (dropout): Dropout(p=0.0, inplace=False)
        )
        (layer_norm_1): LayerNorm((384,), eps=1e-12, elementwise_affine=True)
        (pos_wise_ff_layer): PositionWiseFeedForward(
          (pos_wise_feed_forward): Sequential(
            (0): Linear(in_features=384, out_features=384, bias=True)
            (1): GELU(approximate='none')
            (2): Dropout(p=0.0, inplace=False)
            (3): Linear(in_features=384, out_features=384, bias=True)
            (4): Dropout(p=0.0, inplace=False)
          )
        )
        (layer_norm_2): LayerNorm((384,), eps=1e-12, elementwise_affine=True)
        (dropout): Dropout(p=0.0, inplace=False)
      )
    )
  )
  (final_layer_norm): LayerNorm((384,), eps=1e-05, elementwise_affine=True)
)
Last Saved Model Validation Accuracy: -1


            Epoch: 0    

            Training Broad Class Loss: 0.00000 Fine Class Loss: 2.04215
            Validation Broad Class Loss: 0.00000 Accuracy: 0.00000 Fine Class Loss: 1.69819 Accuracy: 0.35400
            Best Accuracy till now: -1.00000
            
val_acc_fine Accuracy increased: -1.00000 -> 0.35400
…
            Validation Broad Class Loss: 0.00000 Accuracy: 0.00000 Fine Class Loss: 0.87507 Accuracy: 0.78721
            Best Accuracy till now: 0.80010
            


            Epoch: 299  

            Training Broad Class Loss: 0.00000 Fine Class Loss: 0.30132
            Validation Broad Class Loss: 0.00000 Accuracy: 0.00000 Fine Class Loss: 0.89862 Accuracy: 0.79170
            Best Accuracy till now: 0.80010
            
************************************************************************************************************************
Exp: vit-b-16-cifar10-full-train-fine-broad-separate-sgd-no-autoaug
ViTBasicForImageClassification(
  (embedding_layer): Sequential(
    (0): Conv2d(3, 768, kernel_size=(16, 16), stride=(16, 16))
    (1): Rearrange('b d ph pw -> b (ph pw) d')
  )
  (additional_class_tokens): ParameterList(
      (0): Parameter containing: [torch.float32 of size 1x1x768 (GPU 0)]
      (1): Parameter containing: [torch.float32 of size 1x1x768 (GPU 0)]
  )
  (mlp_heads): ModuleList(
    (0): Linear(in_features=768, out_features=2, bias=True)
    (1): Linear(in_features=768, out_features=10, bias=True)
  )
  (positional_embedding): PositionalEmbedding1D()
  (transformer_encoder): TransformerEncoder(
    (tf_blocks): ModuleList(
      (0-11): 12 x TransformerBlock(
        (mha): MultiHeadAttention(
          (query_layer): Linear(in_features=768, out_features=768, bias=True)
          (key_layer): Linear(in_features=768, out_features=768, bias=True)
          (value_layer): Linear(in_features=768, out_features=768, bias=True)
          (out_proj): Linear(in_features=768, out_features=768, bias=True)
          (dropout): Dropout(p=0.0, inplace=False)
        )
        (layer_norm_1): LayerNorm((768,), eps=1e-06, elementwise_affine=True)
        (pos_wise_ff_layer): PositionWiseFeedForward(
          (pos_wise_feed_forward): Sequential(
            (0): Linear(in_features=768, out_features=3072, bias=True)
            (1): GELU(approximate='none')
            (2): Dropout(p=0.0, inplace=False)
            (3): Linear(in_features=3072, out_features=768, bias=True)
            (4): Dropout(p=0.0, inplace=False)
          )
        )
        (layer_norm_2): LayerNorm((768,), eps=1e-06, elementwise_affine=True)
        (dropout): Dropout(p=0.0, inplace=False)
      )
    )
  )
  (final_layer_norm): LayerNorm((768,), eps=1e-06, elementwise_affine=True)
)
Starting Train/Eval...
************************************************************************************************************************
ViTBasicForImageClassification(
  (embedding_layer): Sequential(
    (0): Conv2d(3, 768, kernel_size=(16, 16), stride=(16, 16))
    (1): Rearrange('b d ph pw -> b (ph pw) d')
  )
  (additional_class_tokens): ParameterList(
      (0): Parameter containing: [torch.float32 of size 1x1x768 (GPU 0)]
      (1): Parameter containing: [torch.float32 of size 1x1x768 (GPU 0)]
  )
  (mlp_heads): ModuleList(
    (0): Linear(in_features=768, out_features=2, bias=True)
    (1): Linear(in_features=768, out_features=10, bias=True)
  )
  (positional_embedding): PositionalEmbedding1D()
  (transformer_encoder): TransformerEncoder(
    (tf_blocks): ModuleList(
      (0-11): 12 x TransformerBlock(
        (mha): MultiHeadAttention(
          (query_layer): Linear(in_features=768, out_features=768, bias=True)
          (key_layer): Linear(in_features=768, out_features=768, bias=True)
          (value_layer): Linear(in_features=768, out_features=768, bias=True)
          (out_proj): Linear(in_features=768, out_features=768, bias=True)
          (dropout): Dropout(p=0.0, inplace=False)
        )
        (layer_norm_1): LayerNorm((768,), eps=1e-06, elementwise_affine=True)
        (pos_wise_ff_layer): PositionWiseFeedForward(
          (pos_wise_feed_forward): Sequential(
            (0): Linear(in_features=768, out_features=3072, bias=True)
            (1): GELU(approximate='none')
            (2): Dropout(p=0.0, inplace=False)
            (3): Linear(in_features=3072, out_features=768, bias=True)
            (4): Dropout(p=0.0, inplace=False)
          )
        )
        (layer_norm_2): LayerNorm((768,), eps=1e-06, elementwise_affine=True)
        (dropout): Dropout(p=0.0, inplace=False)
      )
    )
  )
  (final_layer_norm): LayerNorm((768,), eps=1e-06, elementwise_affine=True)
)
Experiment:  vit-b-16-cifar10-full-train-fine-broad-separate-sgd-no-autoaug_1693129887
Starting Train/Eval...
************************************************************************************************************************
ViTBasicForImageClassification(
  (embedding_layer): Sequential(
    (0): Conv2d(3, 768, kernel_size=(16, 16), stride=(16, 16))
    (1): Rearrange('b d ph pw -> b (ph pw) d')
  )
  (additional_class_tokens): ParameterList(
      (0): Parameter containing: [torch.float32 of size 1x1x768 (GPU 0)]
      (1): Parameter containing: [torch.float32 of size 1x1x768 (GPU 0)]
  )
  (mlp_heads): ModuleList(
    (0): Linear(in_features=768, out_features=2, bias=True)
    (1): Linear(in_features=768, out_features=10, bias=True)
  )
  (positional_embedding): PositionalEmbedding1D()
  (transformer_encoder): TransformerEncoder(
    (tf_blocks): ModuleList(
      (0-11): 12 x TransformerBlock(
        (mha): MultiHeadAttention(
          (query_layer): Linear(in_features=768, out_features=768, bias=True)
          (key_layer): Linear(in_features=768, out_features=768, bias=True)
          (value_layer): Linear(in_features=768, out_features=768, bias=True)
          (out_proj): Linear(in_features=768, out_features=768, bias=True)
          (dropout): Dropout(p=0.0, inplace=False)
        )
        (layer_norm_1): LayerNorm((768,), eps=1e-06, elementwise_affine=True)
        (pos_wise_ff_layer): PositionWiseFeedForward(
          (pos_wise_feed_forward): Sequential(
            (0): Linear(in_features=768, out_features=3072, bias=True)
            (1): GELU(approximate='none')
            (2): Dropout(p=0.0, inplace=False)
            (3): Linear(in_features=3072, out_features=768, bias=True)
            (4): Dropout(p=0.0, inplace=False)
          )
        )
        (layer_norm_2): LayerNorm((768,), eps=1e-06, elementwise_affine=True)
        (dropout): Dropout(p=0.0, inplace=False)
      )
    )
  )
  (final_layer_norm): LayerNorm((768,), eps=1e-06, elementwise_affine=True)
)
Experiment:  vit-b-16-cifar10-full-train-fine-broad-separate-sgd-no-autoaug_1693129981
Starting Train/Eval...
************************************************************************************************************************
ViTBasicForImageClassification(
  (embedding_layer): Sequential(
    (0): Conv2d(3, 768, kernel_size=(16, 16), stride=(16, 16))
    (1): Rearrange('b d ph pw -> b (ph pw) d')
  )
  (additional_class_tokens): ParameterList(
      (0): Parameter containing: [torch.float32 of size 1x1x768 (GPU 0)]
      (1): Parameter containing: [torch.float32 of size 1x1x768 (GPU 0)]
  )
  (mlp_heads): ModuleList(
    (0): Linear(in_features=768, out_features=2, bias=True)
    (1): Linear(in_features=768, out_features=10, bias=True)
  )
  (positional_embedding): PositionalEmbedding1D()
  (transformer_encoder): TransformerEncoder(
    (tf_blocks): ModuleList(
      (0-11): 12 x TransformerBlock(
        (mha): MultiHeadAttention(
          (query_layer): Linear(in_features=768, out_features=768, bias=True)
          (key_layer): Linear(in_features=768, out_features=768, bias=True)
          (value_layer): Linear(in_features=768, out_features=768, bias=True)
          (out_proj): Linear(in_features=768, out_features=768, bias=True)
          (dropout): Dropout(p=0.0, inplace=False)
        )
        (layer_norm_1): LayerNorm((768,), eps=1e-06, elementwise_affine=True)
        (pos_wise_ff_layer): PositionWiseFeedForward(
          (pos_wise_feed_forward): Sequential(
            (0): Linear(in_features=768, out_features=3072, bias=True)
            (1): GELU(approximate='none')
            (2): Dropout(p=0.0, inplace=False)
            (3): Linear(in_features=3072, out_features=768, bias=True)
            (4): Dropout(p=0.0, inplace=False)
          )
        )
        (layer_norm_2): LayerNorm((768,), eps=1e-06, elementwise_affine=True)
        (dropout): Dropout(p=0.0, inplace=False)
      )
    )
  )
  (final_layer_norm): LayerNorm((768,), eps=1e-06, elementwise_affine=True)
)
Experiment:  vit-b-16-cifar10-full-train-fine-broad-separate-sgd-no-autoaug_1693133692
************************************************************************************************************************
************************************************************************************************************************
ViTBasicForImageClassification(
  (embedding_layer): Sequential(
    (0): Conv2d(3, 768, kernel_size=(16, 16), stride=(16, 16))
    (1): Rearrange('b d ph pw -> b (ph pw) d')
  )
  (additional_class_tokens): ParameterList(
      (0): Parameter containing: [torch.FloatTensor of size 1x1x768]
      (1): Parameter containing: [torch.FloatTensor of size 1x1x768]
  )
  (mlp_heads): ModuleList(
    (0): Linear(in_features=768, out_features=2, bias=True)
    (1): Linear(in_features=768, out_features=10, bias=True)
  )
  (positional_embedding): PositionalEmbedding1D()
  (transformer_encoder): TransformerEncoder(
    (tf_blocks): ModuleList(
      (0): TransformerBlock(
        (mha): MultiHeadAttention(
          (query_layer): Linear(in_features=768, out_features=768, bias=True)
          (key_layer): Linear(in_features=768, out_features=768, bias=True)
          (value_layer): Linear(in_features=768, out_features=768, bias=True)
          (out_proj): Linear(in_features=768, out_features=768, bias=True)
          (dropout): Dropout(p=0.0, inplace=False)
        )
        (layer_norm_1): LayerNorm((768,), eps=1e-06, elementwise_affine=True)
        (pos_wise_ff_layer): PositionWiseFeedForward(
          (pos_wise_feed_forward): Sequential(
            (0): Linear(in_features=768, out_features=3072, bias=True)
            (1): GELU()
            (2): Dropout(p=0.0, inplace=False)
            (3): Linear(in_features=3072, out_features=768, bias=True)
            (4): Dropout(p=0.0, inplace=False)
          )
        )
        (layer_norm_2): LayerNorm((768,), eps=1e-06, elementwise_affine=True)
        (dropout): Dropout(p=0.0, inplace=False)
      )
      (1): TransformerBlock(
        (mha): MultiHeadAttention(
          (query_layer): Linear(in_features=768, out_features=768, bias=True)
          (key_layer): Linear(in_features=768, out_features=768, bias=True)
          (value_layer): Linear(in_features=768, out_features=768, bias=True)
          (out_proj): Linear(in_features=768, out_features=768, bias=True)
          (dropout): Dropout(p=0.0, inplace=False)
        )
        (layer_norm_1): LayerNorm((768,), eps=1e-06, elementwise_affine=True)
        (pos_wise_ff_layer): PositionWiseFeedForward(
          (pos_wise_feed_forward): Sequential(
            (0): Linear(in_features=768, out_features=3072, bias=True)
            (1): GELU()
            (2): Dropout(p=0.0, inplace=False)
            (3): Linear(in_features=3072, out_features=768, bias=True)
            (4): Dropout(p=0.0, inplace=False)
          )
        )
        (layer_norm_2): LayerNorm((768,), eps=1e-06, elementwise_affine=True)
        (dropout): Dropout(p=0.0, inplace=False)
      )
      (2): TransformerBlock(
        (mha): MultiHeadAttention(
          (query_layer): Linear(in_features=768, out_features=768, bias=True)
          (key_layer): Linear(in_features=768, out_features=768, bias=True)
          (value_layer): Linear(in_features=768, out_features=768, bias=True)
          (out_proj): Linear(in_features=768, out_features=768, bias=True)
          (dropout): Dropout(p=0.0, inplace=False)
        )
        (layer_norm_1): LayerNorm((768,), eps=1e-06, elementwise_affine=True)
        (pos_wise_ff_layer): PositionWiseFeedForward(
          (pos_wise_feed_forward): Sequential(
            (0): Linear(in_features=768, out_features=3072, bias=True)
            (1): GELU()
            (2): Dropout(p=0.0, inplace=False)
            (3): Linear(in_features=3072, out_features=768, bias=True)
            (4): Dropout(p=0.0, inplace=False)
          )
        )
        (layer_norm_2): LayerNorm((768,), eps=1e-06, elementwise_affine=True)
        (dropout): Dropout(p=0.0, inplace=False)
      )
      (3): TransformerBlock(
        (mha): MultiHeadAttention(
          (query_layer): Linear(in_features=768, out_features=768, bias=True)
          (key_layer): Linear(in_features=768, out_features=768, bias=True)
          (value_layer): Linear(in_features=768, out_features=768, bias=True)
          (out_proj): Linear(in_features=768, out_features=768, bias=True)
          (dropout): Dropout(p=0.0, inplace=False)
        )
        (layer_norm_1): LayerNorm((768,), eps=1e-06, elementwise_affine=True)
        (pos_wise_ff_layer): PositionWiseFeedForward(
          (pos_wise_feed_forward): Sequential(
            (0): Linear(in_features=768, out_features=3072, bias=True)
            (1): GELU()
            (2): Dropout(p=0.0, inplace=False)
            (3): Linear(in_features=3072, out_features=768, bias=True)
            (4): Dropout(p=0.0, inplace=False)
          )
        )
        (layer_norm_2): LayerNorm((768,), eps=1e-06, elementwise_affine=True)
        (dropout): Dropout(p=0.0, inplace=False)
      )
      (4): TransformerBlock(
        (mha): MultiHeadAttention(
          (query_layer): Linear(in_features=768, out_features=768, bias=True)
          (key_layer): Linear(in_features=768, out_features=768, bias=True)
          (value_layer): Linear(in_features=768, out_features=768, bias=True)
          (out_proj): Linear(in_features=768, out_features=768, bias=True)
          (dropout): Dropout(p=0.0, inplace=False)
        )
        (layer_norm_1): LayerNorm((768,), eps=1e-06, elementwise_affine=True)
        (pos_wise_ff_layer): PositionWiseFeedForward(
          (pos_wise_feed_forward): Sequential(
            (0): Linear(in_features=768, out_features=3072, bias=True)
            (1): GELU()
            (2): Dropout(p=0.0, inplace=False)
            (3): Linear(in_features=3072, out_features=768, bias=True)
            (4): Dropout(p=0.0, inplace=False)
          )
        )
        (layer_norm_2): LayerNorm((768,), eps=1e-06, elementwise_affine=True)
        (dropout): Dropout(p=0.0, inplace=False)
      )
      (5): TransformerBlock(
        (mha): MultiHeadAttention(
          (query_layer): Linear(in_features=768, out_features=768, bias=True)
          (key_layer): Linear(in_features=768, out_features=768, bias=True)
          (value_layer): Linear(in_features=768, out_features=768, bias=True)
          (out_proj): Linear(in_features=768, out_features=768, bias=True)
          (dropout): Dropout(p=0.0, inplace=False)
        )
        (layer_norm_1): LayerNorm((768,), eps=1e-06, elementwise_affine=True)
        (pos_wise_ff_layer): PositionWiseFeedForward(
          (pos_wise_feed_forward): Sequential(
            (0): Linear(in_features=768, out_features=3072, bias=True)
            (1): GELU()
            (2): Dropout(p=0.0, inplace=False)
            (3): Linear(in_features=3072, out_features=768, bias=True)
            (4): Dropout(p=0.0, inplace=False)
          )
        )
        (layer_norm_2): LayerNorm((768,), eps=1e-06, elementwise_affine=True)
        (dropout): Dropout(p=0.0, inplace=False)
      )
      (6): TransformerBlock(
        (mha): MultiHeadAttention(
          (query_layer): Linear(in_features=768, out_features=768, bias=True)
          (key_layer): Linear(in_features=768, out_features=768, bias=True)
          (value_layer): Linear(in_features=768, out_features=768, bias=True)
          (out_proj): Linear(in_features=768, out_features=768, bias=True)
          (dropout): Dropout(p=0.0, inplace=False)
        )
        (layer_norm_1): LayerNorm((768,), eps=1e-06, elementwise_affine=True)
        (pos_wise_ff_layer): PositionWiseFeedForward(
          (pos_wise_feed_forward): Sequential(
            (0): Linear(in_features=768, out_features=3072, bias=True)
            (1): GELU()
            (2): Dropout(p=0.0, inplace=False)
            (3): Linear(in_features=3072, out_features=768, bias=True)
            (4): Dropout(p=0.0, inplace=False)
          )
        )
        (layer_norm_2): LayerNorm((768,), eps=1e-06, elementwise_affine=True)
        (dropout): Dropout(p=0.0, inplace=False)
      )
      (7): TransformerBlock(
        (mha): MultiHeadAttention(
          (query_layer): Linear(in_features=768, out_features=768, bias=True)
          (key_layer): Linear(in_features=768, out_features=768, bias=True)
          (value_layer): Linear(in_features=768, out_features=768, bias=True)
          (out_proj): Linear(in_features=768, out_features=768, bias=True)
          (dropout): Dropout(p=0.0, inplace=False)
        )
        (layer_norm_1): LayerNorm((768,), eps=1e-06, elementwise_affine=True)
        (pos_wise_ff_layer): PositionWiseFeedForward(
          (pos_wise_feed_forward): Sequential(
            (0): Linear(in_features=768, out_features=3072, bias=True)
            (1): GELU()
            (2): Dropout(p=0.0, inplace=False)
            (3): Linear(in_features=3072, out_features=768, bias=True)
            (4): Dropout(p=0.0, inplace=False)
          )
        )
        (layer_norm_2): LayerNorm((768,), eps=1e-06, elementwise_affine=True)
        (dropout): Dropout(p=0.0, inplace=False)
      )
      (8): TransformerBlock(
        (mha): MultiHeadAttention(
          (query_layer): Linear(in_features=768, out_features=768, bias=True)
          (key_layer): Linear(in_features=768, out_features=768, bias=True)
          (value_layer): Linear(in_features=768, out_features=768, bias=True)
          (out_proj): Linear(in_features=768, out_features=768, bias=True)
          (dropout): Dropout(p=0.0, inplace=False)
        )
        (layer_norm_1): LayerNorm((768,), eps=1e-06, elementwise_affine=True)
        (pos_wise_ff_layer): PositionWiseFeedForward(
          (pos_wise_feed_forward): Sequential(
            (0): Linear(in_features=768, out_features=3072, bias=True)
            (1): GELU()
            (2): Dropout(p=0.0, inplace=False)
            (3): Linear(in_features=3072, out_features=768, bias=True)
            (4): Dropout(p=0.0, inplace=False)
          )
        )
        (layer_norm_2): LayerNorm((768,), eps=1e-06, elementwise_affine=True)
        (dropout): Dropout(p=0.0, inplace=False)
      )
      (9): TransformerBlock(
        (mha): MultiHeadAttention(
          (query_layer): Linear(in_features=768, out_features=768, bias=True)
          (key_layer): Linear(in_features=768, out_features=768, bias=True)
          (value_layer): Linear(in_features=768, out_features=768, bias=True)
          (out_proj): Linear(in_features=768, out_features=768, bias=True)
          (dropout): Dropout(p=0.0, inplace=False)
        )
        (layer_norm_1): LayerNorm((768,), eps=1e-06, elementwise_affine=True)
        (pos_wise_ff_layer): PositionWiseFeedForward(
          (pos_wise_feed_forward): Sequential(
            (0): Linear(in_features=768, out_features=3072, bias=True)
            (1): GELU()
            (2): Dropout(p=0.0, inplace=False)
            (3): Linear(in_features=3072, out_features=768, bias=True)
            (4): Dropout(p=0.0, inplace=False)
          )
        )
        (layer_norm_2): LayerNorm((768,), eps=1e-06, elementwise_affine=True)
        (dropout): Dropout(p=0.0, inplace=False)
      )
      (10): TransformerBlock(
        (mha): MultiHeadAttention(
          (query_layer): Linear(in_features=768, out_features=768, bias=True)
          (key_layer): Linear(in_features=768, out_features=768, bias=True)
          (value_layer): Linear(in_features=768, out_features=768, bias=True)
          (out_proj): Linear(in_features=768, out_features=768, bias=True)
          (dropout): Dropout(p=0.0, inplace=False)
        )
        (layer_norm_1): LayerNorm((768,), eps=1e-06, elementwise_affine=True)
        (pos_wise_ff_layer): PositionWiseFeedForward(
          (pos_wise_feed_forward): Sequential(
            (0): Linear(in_features=768, out_features=3072, bias=True)
            (1): GELU()
            (2): Dropout(p=0.0, inplace=False)
            (3): Linear(in_features=3072, out_features=768, bias=True)
            (4): Dropout(p=0.0, inplace=False)
          )
        )
        (layer_norm_2): LayerNorm((768,), eps=1e-06, elementwise_affine=True)
        (dropout): Dropout(p=0.0, inplace=False)
      )
      (11): TransformerBlock(
        (mha): MultiHeadAttention(
          (query_layer): Linear(in_features=768, out_features=768, bias=True)
          (key_layer): Linear(in_features=768, out_features=768, bias=True)
          (value_layer): Linear(in_features=768, out_features=768, bias=True)
          (out_proj): Linear(in_features=768, out_features=768, bias=True)
          (dropout): Dropout(p=0.0, inplace=False)
        )
        (layer_norm_1): LayerNorm((768,), eps=1e-06, elementwise_affine=True)
        (pos_wise_ff_layer): PositionWiseFeedForward(
          (pos_wise_feed_forward): Sequential(
            (0): Linear(in_features=768, out_features=3072, bias=True)
            (1): GELU()
            (2): Dropout(p=0.0, inplace=False)
            (3): Linear(in_features=3072, out_features=768, bias=True)
            (4): Dropout(p=0.0, inplace=False)
          )
        )
        (layer_norm_2): LayerNorm((768,), eps=1e-06, elementwise_affine=True)
        (dropout): Dropout(p=0.0, inplace=False)
      )
    )
  )
  (final_layer_norm): LayerNorm((768,), eps=1e-06, elementwise_affine=True)
)
Experiment:  vit-b-16-cifar10-full-train-fine-broad-separate-sgd-no-autoaug_1693289684
Starting Train/Eval...
Starting Epoch:  0

Epoch: 0
Mode: MODE.TRAIN
Losses: 0.6720523834228516
Metrics: {'Acc@1': 0.5}
Best Acc@1 till now: -1


Epoch: 0
Mode: MODE.EVAL
Losses: 0.4312545955181122
Metrics: {'Acc@1': 0.5}
Best Acc@1 till now: -1

************************************************************************************************************************
ViTBasicForImageClassification(
  (embedding_layer): Sequential(
    (0): Conv2d(3, 768, kernel_size=(16, 16), stride=(16, 16))
    (1): Rearrange('b d ph pw -> b (ph pw) d')
  )
  (additional_class_tokens): ParameterList(
      (0): Parameter containing: [torch.FloatTensor of size 1x1x768]
      (1): Parameter containing: [torch.FloatTensor of size 1x1x768]
  )
  (mlp_heads): ModuleList(
    (0): Linear(in_features=768, out_features=2, bias=True)
    (1): Linear(in_features=768, out_features=10, bias=True)
  )
  (positional_embedding): PositionalEmbedding1D()
  (transformer_encoder): TransformerEncoder(
    (tf_blocks): ModuleList(
      (0): TransformerBlock(
        (mha): MultiHeadAttention(
          (query_layer): Linear(in_features=768, out_features=768, bias=True)
          (key_layer): Linear(in_features=768, out_features=768, bias=True)
          (value_layer): Linear(in_features=768, out_features=768, bias=True)
          (out_proj): Linear(in_features=768, out_features=768, bias=True)
          (dropout): Dropout(p=0.0, inplace=False)
        )
        (layer_norm_1): LayerNorm((768,), eps=1e-06, elementwise_affine=True)
        (pos_wise_ff_layer): PositionWiseFeedForward(
          (pos_wise_feed_forward): Sequential(
            (0): Linear(in_features=768, out_features=3072, bias=True)
            (1): GELU()
            (2): Dropout(p=0.0, inplace=False)
            (3): Linear(in_features=3072, out_features=768, bias=True)
            (4): Dropout(p=0.0, inplace=False)
          )
        )
        (layer_norm_2): LayerNorm((768,), eps=1e-06, elementwise_affine=True)
        (dropout): Dropout(p=0.0, inplace=False)
      )
      (1): TransformerBlock(
        (mha): MultiHeadAttention(
          (query_layer): Linear(in_features=768, out_features=768, bias=True)
          (key_layer): Linear(in_features=768, out_features=768, bias=True)
          (value_layer): Linear(in_features=768, out_features=768, bias=True)
          (out_proj): Linear(in_features=768, out_features=768, bias=True)
          (dropout): Dropout(p=0.0, inplace=False)
        )
        (layer_norm_1): LayerNorm((768,), eps=1e-06, elementwise_affine=True)
        (pos_wise_ff_layer): PositionWiseFeedForward(
          (pos_wise_feed_forward): Sequential(
            (0): Linear(in_features=768, out_features=3072, bias=True)
            (1): GELU()
            (2): Dropout(p=0.0, inplace=False)
            (3): Linear(in_features=3072, out_features=768, bias=True)
            (4): Dropout(p=0.0, inplace=False)
          )
        )
        (layer_norm_2): LayerNorm((768,), eps=1e-06, elementwise_affine=True)
        (dropout): Dropout(p=0.0, inplace=False)
      )
      (2): TransformerBlock(
        (mha): MultiHeadAttention(
          (query_layer): Linear(in_features=768, out_features=768, bias=True)
          (key_layer): Linear(in_features=768, out_features=768, bias=True)
          (value_layer): Linear(in_features=768, out_features=768, bias=True)
          (out_proj): Linear(in_features=768, out_features=768, bias=True)
          (dropout): Dropout(p=0.0, inplace=False)
        )
        (layer_norm_1): LayerNorm((768,), eps=1e-06, elementwise_affine=True)
        (pos_wise_ff_layer): PositionWiseFeedForward(
          (pos_wise_feed_forward): Sequential(
            (0): Linear(in_features=768, out_features=3072, bias=True)
            (1): GELU()
            (2): Dropout(p=0.0, inplace=False)
            (3): Linear(in_features=3072, out_features=768, bias=True)
            (4): Dropout(p=0.0, inplace=False)
          )
        )
        (layer_norm_2): LayerNorm((768,), eps=1e-06, elementwise_affine=True)
        (dropout): Dropout(p=0.0, inplace=False)
      )
      (3): TransformerBlock(
        (mha): MultiHeadAttention(
          (query_layer): Linear(in_features=768, out_features=768, bias=True)
          (key_layer): Linear(in_features=768, out_features=768, bias=True)
          (value_layer): Linear(in_features=768, out_features=768, bias=True)
          (out_proj): Linear(in_features=768, out_features=768, bias=True)
          (dropout): Dropout(p=0.0, inplace=False)
        )
        (layer_norm_1): LayerNorm((768,), eps=1e-06, elementwise_affine=True)
        (pos_wise_ff_layer): PositionWiseFeedForward(
          (pos_wise_feed_forward): Sequential(
            (0): Linear(in_features=768, out_features=3072, bias=True)
            (1): GELU()
            (2): Dropout(p=0.0, inplace=False)
            (3): Linear(in_features=3072, out_features=768, bias=True)
            (4): Dropout(p=0.0, inplace=False)
          )
        )
        (layer_norm_2): LayerNorm((768,), eps=1e-06, elementwise_affine=True)
        (dropout): Dropout(p=0.0, inplace=False)
      )
      (4): TransformerBlock(
        (mha): MultiHeadAttention(
          (query_layer): Linear(in_features=768, out_features=768, bias=True)
          (key_layer): Linear(in_features=768, out_features=768, bias=True)
          (value_layer): Linear(in_features=768, out_features=768, bias=True)
          (out_proj): Linear(in_features=768, out_features=768, bias=True)
          (dropout): Dropout(p=0.0, inplace=False)
        )
        (layer_norm_1): LayerNorm((768,), eps=1e-06, elementwise_affine=True)
        (pos_wise_ff_layer): PositionWiseFeedForward(
          (pos_wise_feed_forward): Sequential(
            (0): Linear(in_features=768, out_features=3072, bias=True)
            (1): GELU()
            (2): Dropout(p=0.0, inplace=False)
            (3): Linear(in_features=3072, out_features=768, bias=True)
            (4): Dropout(p=0.0, inplace=False)
          )
        )
        (layer_norm_2): LayerNorm((768,), eps=1e-06, elementwise_affine=True)
        (dropout): Dropout(p=0.0, inplace=False)
      )
      (5): TransformerBlock(
        (mha): MultiHeadAttention(
          (query_layer): Linear(in_features=768, out_features=768, bias=True)
          (key_layer): Linear(in_features=768, out_features=768, bias=True)
          (value_layer): Linear(in_features=768, out_features=768, bias=True)
          (out_proj): Linear(in_features=768, out_features=768, bias=True)
          (dropout): Dropout(p=0.0, inplace=False)
        )
        (layer_norm_1): LayerNorm((768,), eps=1e-06, elementwise_affine=True)
        (pos_wise_ff_layer): PositionWiseFeedForward(
          (pos_wise_feed_forward): Sequential(
            (0): Linear(in_features=768, out_features=3072, bias=True)
            (1): GELU()
            (2): Dropout(p=0.0, inplace=False)
            (3): Linear(in_features=3072, out_features=768, bias=True)
            (4): Dropout(p=0.0, inplace=False)
          )
        )
        (layer_norm_2): LayerNorm((768,), eps=1e-06, elementwise_affine=True)
        (dropout): Dropout(p=0.0, inplace=False)
      )
      (6): TransformerBlock(
        (mha): MultiHeadAttention(
          (query_layer): Linear(in_features=768, out_features=768, bias=True)
          (key_layer): Linear(in_features=768, out_features=768, bias=True)
          (value_layer): Linear(in_features=768, out_features=768, bias=True)
          (out_proj): Linear(in_features=768, out_features=768, bias=True)
          (dropout): Dropout(p=0.0, inplace=False)
        )
        (layer_norm_1): LayerNorm((768,), eps=1e-06, elementwise_affine=True)
        (pos_wise_ff_layer): PositionWiseFeedForward(
          (pos_wise_feed_forward): Sequential(
            (0): Linear(in_features=768, out_features=3072, bias=True)
            (1): GELU()
            (2): Dropout(p=0.0, inplace=False)
            (3): Linear(in_features=3072, out_features=768, bias=True)
            (4): Dropout(p=0.0, inplace=False)
          )
        )
        (layer_norm_2): LayerNorm((768,), eps=1e-06, elementwise_affine=True)
        (dropout): Dropout(p=0.0, inplace=False)
      )
      (7): TransformerBlock(
        (mha): MultiHeadAttention(
          (query_layer): Linear(in_features=768, out_features=768, bias=True)
          (key_layer): Linear(in_features=768, out_features=768, bias=True)
          (value_layer): Linear(in_features=768, out_features=768, bias=True)
          (out_proj): Linear(in_features=768, out_features=768, bias=True)
          (dropout): Dropout(p=0.0, inplace=False)
        )
        (layer_norm_1): LayerNorm((768,), eps=1e-06, elementwise_affine=True)
        (pos_wise_ff_layer): PositionWiseFeedForward(
          (pos_wise_feed_forward): Sequential(
            (0): Linear(in_features=768, out_features=3072, bias=True)
            (1): GELU()
            (2): Dropout(p=0.0, inplace=False)
            (3): Linear(in_features=3072, out_features=768, bias=True)
            (4): Dropout(p=0.0, inplace=False)
          )
        )
        (layer_norm_2): LayerNorm((768,), eps=1e-06, elementwise_affine=True)
        (dropout): Dropout(p=0.0, inplace=False)
      )
      (8): TransformerBlock(
        (mha): MultiHeadAttention(
          (query_layer): Linear(in_features=768, out_features=768, bias=True)
          (key_layer): Linear(in_features=768, out_features=768, bias=True)
          (value_layer): Linear(in_features=768, out_features=768, bias=True)
          (out_proj): Linear(in_features=768, out_features=768, bias=True)
          (dropout): Dropout(p=0.0, inplace=False)
        )
        (layer_norm_1): LayerNorm((768,), eps=1e-06, elementwise_affine=True)
        (pos_wise_ff_layer): PositionWiseFeedForward(
          (pos_wise_feed_forward): Sequential(
            (0): Linear(in_features=768, out_features=3072, bias=True)
            (1): GELU()
            (2): Dropout(p=0.0, inplace=False)
            (3): Linear(in_features=3072, out_features=768, bias=True)
            (4): Dropout(p=0.0, inplace=False)
          )
        )
        (layer_norm_2): LayerNorm((768,), eps=1e-06, elementwise_affine=True)
        (dropout): Dropout(p=0.0, inplace=False)
      )
      (9): TransformerBlock(
        (mha): MultiHeadAttention(
          (query_layer): Linear(in_features=768, out_features=768, bias=True)
          (key_layer): Linear(in_features=768, out_features=768, bias=True)
          (value_layer): Linear(in_features=768, out_features=768, bias=True)
          (out_proj): Linear(in_features=768, out_features=768, bias=True)
          (dropout): Dropout(p=0.0, inplace=False)
        )
        (layer_norm_1): LayerNorm((768,), eps=1e-06, elementwise_affine=True)
        (pos_wise_ff_layer): PositionWiseFeedForward(
          (pos_wise_feed_forward): Sequential(
            (0): Linear(in_features=768, out_features=3072, bias=True)
            (1): GELU()
            (2): Dropout(p=0.0, inplace=False)
            (3): Linear(in_features=3072, out_features=768, bias=True)
            (4): Dropout(p=0.0, inplace=False)
          )
        )
        (layer_norm_2): LayerNorm((768,), eps=1e-06, elementwise_affine=True)
        (dropout): Dropout(p=0.0, inplace=False)
      )
      (10): TransformerBlock(
        (mha): MultiHeadAttention(
          (query_layer): Linear(in_features=768, out_features=768, bias=True)
          (key_layer): Linear(in_features=768, out_features=768, bias=True)
          (value_layer): Linear(in_features=768, out_features=768, bias=True)
          (out_proj): Linear(in_features=768, out_features=768, bias=True)
          (dropout): Dropout(p=0.0, inplace=False)
        )
        (layer_norm_1): LayerNorm((768,), eps=1e-06, elementwise_affine=True)
        (pos_wise_ff_layer): PositionWiseFeedForward(
          (pos_wise_feed_forward): Sequential(
            (0): Linear(in_features=768, out_features=3072, bias=True)
            (1): GELU()
            (2): Dropout(p=0.0, inplace=False)
            (3): Linear(in_features=3072, out_features=768, bias=True)
            (4): Dropout(p=0.0, inplace=False)
          )
        )
        (layer_norm_2): LayerNorm((768,), eps=1e-06, elementwise_affine=True)
        (dropout): Dropout(p=0.0, inplace=False)
      )
      (11): TransformerBlock(
        (mha): MultiHeadAttention(
          (query_layer): Linear(in_features=768, out_features=768, bias=True)
          (key_layer): Linear(in_features=768, out_features=768, bias=True)
          (value_layer): Linear(in_features=768, out_features=768, bias=True)
          (out_proj): Linear(in_features=768, out_features=768, bias=True)
          (dropout): Dropout(p=0.0, inplace=False)
        )
        (layer_norm_1): LayerNorm((768,), eps=1e-06, elementwise_affine=True)
        (pos_wise_ff_layer): PositionWiseFeedForward(
          (pos_wise_feed_forward): Sequential(
            (0): Linear(in_features=768, out_features=3072, bias=True)
            (1): GELU()
            (2): Dropout(p=0.0, inplace=False)
            (3): Linear(in_features=3072, out_features=768, bias=True)
            (4): Dropout(p=0.0, inplace=False)
          )
        )
        (layer_norm_2): LayerNorm((768,), eps=1e-06, elementwise_affine=True)
        (dropout): Dropout(p=0.0, inplace=False)
      )
    )
  )
  (final_layer_norm): LayerNorm((768,), eps=1e-06, elementwise_affine=True)
)
Experiment:  vit-b-16-cifar10-full-train-fine-broad-separate-sgd-no-autoaug_1693289713
Starting Train/Eval...
Starting Epoch:  0

Epoch: 0
Mode: MODE.TRAIN
Losses: 0.6720523834228516
Metrics: {'Acc@1': 0.5}
Best Acc@1 till now: -1


Epoch: 0
Mode: MODE.EVAL
Losses: 0.4312545955181122
Metrics: {'Acc@1': 0.5}
Best Acc@1 till now: -1

************************************************************************************************************************
ViTBasicForImageClassification(
  (embedding_layer): Sequential(
    (0): Conv2d(3, 768, kernel_size=(16, 16), stride=(16, 16))
    (1): Rearrange('b d ph pw -> b (ph pw) d')
  )
  (additional_class_tokens): ParameterList(
      (0): Parameter containing: [torch.FloatTensor of size 1x1x768]
      (1): Parameter containing: [torch.FloatTensor of size 1x1x768]
  )
  (mlp_heads): ModuleList(
    (0): Linear(in_features=768, out_features=2, bias=True)
    (1): Linear(in_features=768, out_features=10, bias=True)
  )
  (positional_embedding): PositionalEmbedding1D()
  (transformer_encoder): TransformerEncoder(
    (tf_blocks): ModuleList(
      (0): TransformerBlock(
        (mha): MultiHeadAttention(
          (query_layer): Linear(in_features=768, out_features=768, bias=True)
          (key_layer): Linear(in_features=768, out_features=768, bias=True)
          (value_layer): Linear(in_features=768, out_features=768, bias=True)
          (out_proj): Linear(in_features=768, out_features=768, bias=True)
          (dropout): Dropout(p=0.0, inplace=False)
        )
        (layer_norm_1): LayerNorm((768,), eps=1e-06, elementwise_affine=True)
        (pos_wise_ff_layer): PositionWiseFeedForward(
          (pos_wise_feed_forward): Sequential(
            (0): Linear(in_features=768, out_features=3072, bias=True)
            (1): GELU()
            (2): Dropout(p=0.0, inplace=False)
            (3): Linear(in_features=3072, out_features=768, bias=True)
            (4): Dropout(p=0.0, inplace=False)
          )
        )
        (layer_norm_2): LayerNorm((768,), eps=1e-06, elementwise_affine=True)
        (dropout): Dropout(p=0.0, inplace=False)
      )
      (1): TransformerBlock(
        (mha): MultiHeadAttention(
          (query_layer): Linear(in_features=768, out_features=768, bias=True)
          (key_layer): Linear(in_features=768, out_features=768, bias=True)
          (value_layer): Linear(in_features=768, out_features=768, bias=True)
          (out_proj): Linear(in_features=768, out_features=768, bias=True)
          (dropout): Dropout(p=0.0, inplace=False)
        )
        (layer_norm_1): LayerNorm((768,), eps=1e-06, elementwise_affine=True)
        (pos_wise_ff_layer): PositionWiseFeedForward(
          (pos_wise_feed_forward): Sequential(
            (0): Linear(in_features=768, out_features=3072, bias=True)
            (1): GELU()
            (2): Dropout(p=0.0, inplace=False)
            (3): Linear(in_features=3072, out_features=768, bias=True)
            (4): Dropout(p=0.0, inplace=False)
          )
        )
        (layer_norm_2): LayerNorm((768,), eps=1e-06, elementwise_affine=True)
        (dropout): Dropout(p=0.0, inplace=False)
      )
      (2): TransformerBlock(
        (mha): MultiHeadAttention(
          (query_layer): Linear(in_features=768, out_features=768, bias=True)
          (key_layer): Linear(in_features=768, out_features=768, bias=True)
          (value_layer): Linear(in_features=768, out_features=768, bias=True)
          (out_proj): Linear(in_features=768, out_features=768, bias=True)
          (dropout): Dropout(p=0.0, inplace=False)
        )
        (layer_norm_1): LayerNorm((768,), eps=1e-06, elementwise_affine=True)
        (pos_wise_ff_layer): PositionWiseFeedForward(
          (pos_wise_feed_forward): Sequential(
            (0): Linear(in_features=768, out_features=3072, bias=True)
            (1): GELU()
            (2): Dropout(p=0.0, inplace=False)
            (3): Linear(in_features=3072, out_features=768, bias=True)
            (4): Dropout(p=0.0, inplace=False)
          )
        )
        (layer_norm_2): LayerNorm((768,), eps=1e-06, elementwise_affine=True)
        (dropout): Dropout(p=0.0, inplace=False)
      )
      (3): TransformerBlock(
        (mha): MultiHeadAttention(
          (query_layer): Linear(in_features=768, out_features=768, bias=True)
          (key_layer): Linear(in_features=768, out_features=768, bias=True)
          (value_layer): Linear(in_features=768, out_features=768, bias=True)
          (out_proj): Linear(in_features=768, out_features=768, bias=True)
          (dropout): Dropout(p=0.0, inplace=False)
        )
        (layer_norm_1): LayerNorm((768,), eps=1e-06, elementwise_affine=True)
        (pos_wise_ff_layer): PositionWiseFeedForward(
          (pos_wise_feed_forward): Sequential(
            (0): Linear(in_features=768, out_features=3072, bias=True)
            (1): GELU()
            (2): Dropout(p=0.0, inplace=False)
            (3): Linear(in_features=3072, out_features=768, bias=True)
            (4): Dropout(p=0.0, inplace=False)
          )
        )
        (layer_norm_2): LayerNorm((768,), eps=1e-06, elementwise_affine=True)
        (dropout): Dropout(p=0.0, inplace=False)
      )
      (4): TransformerBlock(
        (mha): MultiHeadAttention(
          (query_layer): Linear(in_features=768, out_features=768, bias=True)
          (key_layer): Linear(in_features=768, out_features=768, bias=True)
          (value_layer): Linear(in_features=768, out_features=768, bias=True)
          (out_proj): Linear(in_features=768, out_features=768, bias=True)
          (dropout): Dropout(p=0.0, inplace=False)
        )
        (layer_norm_1): LayerNorm((768,), eps=1e-06, elementwise_affine=True)
        (pos_wise_ff_layer): PositionWiseFeedForward(
          (pos_wise_feed_forward): Sequential(
            (0): Linear(in_features=768, out_features=3072, bias=True)
            (1): GELU()
            (2): Dropout(p=0.0, inplace=False)
            (3): Linear(in_features=3072, out_features=768, bias=True)
            (4): Dropout(p=0.0, inplace=False)
          )
        )
        (layer_norm_2): LayerNorm((768,), eps=1e-06, elementwise_affine=True)
        (dropout): Dropout(p=0.0, inplace=False)
      )
      (5): TransformerBlock(
        (mha): MultiHeadAttention(
          (query_layer): Linear(in_features=768, out_features=768, bias=True)
          (key_layer): Linear(in_features=768, out_features=768, bias=True)
          (value_layer): Linear(in_features=768, out_features=768, bias=True)
          (out_proj): Linear(in_features=768, out_features=768, bias=True)
          (dropout): Dropout(p=0.0, inplace=False)
        )
        (layer_norm_1): LayerNorm((768,), eps=1e-06, elementwise_affine=True)
        (pos_wise_ff_layer): PositionWiseFeedForward(
          (pos_wise_feed_forward): Sequential(
            (0): Linear(in_features=768, out_features=3072, bias=True)
            (1): GELU()
            (2): Dropout(p=0.0, inplace=False)
            (3): Linear(in_features=3072, out_features=768, bias=True)
            (4): Dropout(p=0.0, inplace=False)
          )
        )
        (layer_norm_2): LayerNorm((768,), eps=1e-06, elementwise_affine=True)
        (dropout): Dropout(p=0.0, inplace=False)
      )
      (6): TransformerBlock(
        (mha): MultiHeadAttention(
          (query_layer): Linear(in_features=768, out_features=768, bias=True)
          (key_layer): Linear(in_features=768, out_features=768, bias=True)
          (value_layer): Linear(in_features=768, out_features=768, bias=True)
          (out_proj): Linear(in_features=768, out_features=768, bias=True)
          (dropout): Dropout(p=0.0, inplace=False)
        )
        (layer_norm_1): LayerNorm((768,), eps=1e-06, elementwise_affine=True)
        (pos_wise_ff_layer): PositionWiseFeedForward(
          (pos_wise_feed_forward): Sequential(
            (0): Linear(in_features=768, out_features=3072, bias=True)
            (1): GELU()
            (2): Dropout(p=0.0, inplace=False)
            (3): Linear(in_features=3072, out_features=768, bias=True)
            (4): Dropout(p=0.0, inplace=False)
          )
        )
        (layer_norm_2): LayerNorm((768,), eps=1e-06, elementwise_affine=True)
        (dropout): Dropout(p=0.0, inplace=False)
      )
      (7): TransformerBlock(
        (mha): MultiHeadAttention(
          (query_layer): Linear(in_features=768, out_features=768, bias=True)
          (key_layer): Linear(in_features=768, out_features=768, bias=True)
          (value_layer): Linear(in_features=768, out_features=768, bias=True)
          (out_proj): Linear(in_features=768, out_features=768, bias=True)
          (dropout): Dropout(p=0.0, inplace=False)
        )
        (layer_norm_1): LayerNorm((768,), eps=1e-06, elementwise_affine=True)
        (pos_wise_ff_layer): PositionWiseFeedForward(
          (pos_wise_feed_forward): Sequential(
            (0): Linear(in_features=768, out_features=3072, bias=True)
            (1): GELU()
            (2): Dropout(p=0.0, inplace=False)
            (3): Linear(in_features=3072, out_features=768, bias=True)
            (4): Dropout(p=0.0, inplace=False)
          )
        )
        (layer_norm_2): LayerNorm((768,), eps=1e-06, elementwise_affine=True)
        (dropout): Dropout(p=0.0, inplace=False)
      )
      (8): TransformerBlock(
        (mha): MultiHeadAttention(
          (query_layer): Linear(in_features=768, out_features=768, bias=True)
          (key_layer): Linear(in_features=768, out_features=768, bias=True)
          (value_layer): Linear(in_features=768, out_features=768, bias=True)
          (out_proj): Linear(in_features=768, out_features=768, bias=True)
          (dropout): Dropout(p=0.0, inplace=False)
        )
        (layer_norm_1): LayerNorm((768,), eps=1e-06, elementwise_affine=True)
        (pos_wise_ff_layer): PositionWiseFeedForward(
          (pos_wise_feed_forward): Sequential(
            (0): Linear(in_features=768, out_features=3072, bias=True)
            (1): GELU()
            (2): Dropout(p=0.0, inplace=False)
            (3): Linear(in_features=3072, out_features=768, bias=True)
            (4): Dropout(p=0.0, inplace=False)
          )
        )
        (layer_norm_2): LayerNorm((768,), eps=1e-06, elementwise_affine=True)
        (dropout): Dropout(p=0.0, inplace=False)
      )
      (9): TransformerBlock(
        (mha): MultiHeadAttention(
          (query_layer): Linear(in_features=768, out_features=768, bias=True)
          (key_layer): Linear(in_features=768, out_features=768, bias=True)
          (value_layer): Linear(in_features=768, out_features=768, bias=True)
          (out_proj): Linear(in_features=768, out_features=768, bias=True)
          (dropout): Dropout(p=0.0, inplace=False)
        )
        (layer_norm_1): LayerNorm((768,), eps=1e-06, elementwise_affine=True)
        (pos_wise_ff_layer): PositionWiseFeedForward(
          (pos_wise_feed_forward): Sequential(
            (0): Linear(in_features=768, out_features=3072, bias=True)
            (1): GELU()
            (2): Dropout(p=0.0, inplace=False)
            (3): Linear(in_features=3072, out_features=768, bias=True)
            (4): Dropout(p=0.0, inplace=False)
          )
        )
        (layer_norm_2): LayerNorm((768,), eps=1e-06, elementwise_affine=True)
        (dropout): Dropout(p=0.0, inplace=False)
      )
      (10): TransformerBlock(
        (mha): MultiHeadAttention(
          (query_layer): Linear(in_features=768, out_features=768, bias=True)
          (key_layer): Linear(in_features=768, out_features=768, bias=True)
          (value_layer): Linear(in_features=768, out_features=768, bias=True)
          (out_proj): Linear(in_features=768, out_features=768, bias=True)
          (dropout): Dropout(p=0.0, inplace=False)
        )
        (layer_norm_1): LayerNorm((768,), eps=1e-06, elementwise_affine=True)
        (pos_wise_ff_layer): PositionWiseFeedForward(
          (pos_wise_feed_forward): Sequential(
            (0): Linear(in_features=768, out_features=3072, bias=True)
            (1): GELU()
            (2): Dropout(p=0.0, inplace=False)
            (3): Linear(in_features=3072, out_features=768, bias=True)
            (4): Dropout(p=0.0, inplace=False)
          )
        )
        (layer_norm_2): LayerNorm((768,), eps=1e-06, elementwise_affine=True)
        (dropout): Dropout(p=0.0, inplace=False)
      )
      (11): TransformerBlock(
        (mha): MultiHeadAttention(
          (query_layer): Linear(in_features=768, out_features=768, bias=True)
          (key_layer): Linear(in_features=768, out_features=768, bias=True)
          (value_layer): Linear(in_features=768, out_features=768, bias=True)
          (out_proj): Linear(in_features=768, out_features=768, bias=True)
          (dropout): Dropout(p=0.0, inplace=False)
        )
        (layer_norm_1): LayerNorm((768,), eps=1e-06, elementwise_affine=True)
        (pos_wise_ff_layer): PositionWiseFeedForward(
          (pos_wise_feed_forward): Sequential(
            (0): Linear(in_features=768, out_features=3072, bias=True)
            (1): GELU()
            (2): Dropout(p=0.0, inplace=False)
            (3): Linear(in_features=3072, out_features=768, bias=True)
            (4): Dropout(p=0.0, inplace=False)
          )
        )
        (layer_norm_2): LayerNorm((768,), eps=1e-06, elementwise_affine=True)
        (dropout): Dropout(p=0.0, inplace=False)
      )
    )
  )
  (final_layer_norm): LayerNorm((768,), eps=1e-06, elementwise_affine=True)
)
Experiment:  vit-b-16-cifar10-full-train-fine-broad-separate-sgd-no-autoaug_1693289760
Starting Train/Eval...
Starting Epoch:  0

Epoch: 0
Mode: MODE.TRAIN
Losses: 0.6720523834228516
Metrics: {'Acc@1': 0.5}
Best Acc@1 till now: -1


Epoch: 0
Mode: MODE.EVAL
Losses: 0.4312545955181122
Metrics: {'Acc@1': 0.5}
Best Acc@1 till now: -1

Model CKPT saved at: ./checkpoints/vit-b-16-cifar10-full-train-fine-broad-separate-sgd-no-autoaug_1693289760.pt
…
Losses: 0.3281688690185547
Metrics: {'Acc@1': 1.0}
Best Acc@1 till now: -1


Epoch: 19
Mode: MODE.EVAL
Losses: 0.7193734049797058
Metrics: {'Acc@1': 0.5}
Best Acc@1 till now: 1.0

Epoch took 3.10 s
Starting Epoch:  20

Epoch: 20
Mode: MODE.TRAIN
Losses: 2.1283175945281982
Metrics: {'Acc@1': 0.0}
Best Acc@1 till now: -1


Epoch: 20
Mode: MODE.EVAL
Losses: 0.12308596074581146
Metrics: {'Acc@1': 1.0}
Best Acc@1 till now: 1.0

************************************************************************************************************************
ViTBasicForImageClassification(
  (embedding_layer): Sequential(
    (0): Conv2d(3, 768, kernel_size=(16, 16), stride=(16, 16))
    (1): Rearrange('b d ph pw -> b (ph pw) d')
  )
  (additional_class_tokens): ParameterList(
      (0): Parameter containing: [torch.FloatTensor of size 1x1x768]
      (1): Parameter containing: [torch.FloatTensor of size 1x1x768]
  )
  (mlp_heads): ModuleList(
    (0): Linear(in_features=768, out_features=2, bias=True)
    (1): Linear(in_features=768, out_features=10, bias=True)
  )
  (positional_embedding): PositionalEmbedding1D()
  (transformer_encoder): TransformerEncoder(
    (tf_blocks): ModuleList(
      (0): TransformerBlock(
        (mha): MultiHeadAttention(
          (query_layer): Linear(in_features=768, out_features=768, bias=True)
          (key_layer): Linear(in_features=768, out_features=768, bias=True)
          (value_layer): Linear(in_features=768, out_features=768, bias=True)
          (out_proj): Linear(in_features=768, out_features=768, bias=True)
          (dropout): Dropout(p=0.0, inplace=False)
        )
        (layer_norm_1): LayerNorm((768,), eps=1e-06, elementwise_affine=True)
        (pos_wise_ff_layer): PositionWiseFeedForward(
          (pos_wise_feed_forward): Sequential(
            (0): Linear(in_features=768, out_features=3072, bias=True)
            (1): GELU()
            (2): Dropout(p=0.0, inplace=False)
            (3): Linear(in_features=3072, out_features=768, bias=True)
            (4): Dropout(p=0.0, inplace=False)
          )
        )
        (layer_norm_2): LayerNorm((768,), eps=1e-06, elementwise_affine=True)
        (dropout): Dropout(p=0.0, inplace=False)
      )
      (1): TransformerBlock(
        (mha): MultiHeadAttention(
          (query_layer): Linear(in_features=768, out_features=768, bias=True)
          (key_layer): Linear(in_features=768, out_features=768, bias=True)
          (value_layer): Linear(in_features=768, out_features=768, bias=True)
          (out_proj): Linear(in_features=768, out_features=768, bias=True)
          (dropout): Dropout(p=0.0, inplace=False)
        )
        (layer_norm_1): LayerNorm((768,), eps=1e-06, elementwise_affine=True)
        (pos_wise_ff_layer): PositionWiseFeedForward(
          (pos_wise_feed_forward): Sequential(
            (0): Linear(in_features=768, out_features=3072, bias=True)
            (1): GELU()
            (2): Dropout(p=0.0, inplace=False)
            (3): Linear(in_features=3072, out_features=768, bias=True)
            (4): Dropout(p=0.0, inplace=False)
          )
        )
        (layer_norm_2): LayerNorm((768,), eps=1e-06, elementwise_affine=True)
        (dropout): Dropout(p=0.0, inplace=False)
      )
      (2): TransformerBlock(
        (mha): MultiHeadAttention(
          (query_layer): Linear(in_features=768, out_features=768, bias=True)
          (key_layer): Linear(in_features=768, out_features=768, bias=True)
          (value_layer): Linear(in_features=768, out_features=768, bias=True)
          (out_proj): Linear(in_features=768, out_features=768, bias=True)
          (dropout): Dropout(p=0.0, inplace=False)
        )
        (layer_norm_1): LayerNorm((768,), eps=1e-06, elementwise_affine=True)
        (pos_wise_ff_layer): PositionWiseFeedForward(
          (pos_wise_feed_forward): Sequential(
            (0): Linear(in_features=768, out_features=3072, bias=True)
            (1): GELU()
            (2): Dropout(p=0.0, inplace=False)
            (3): Linear(in_features=3072, out_features=768, bias=True)
            (4): Dropout(p=0.0, inplace=False)
          )
        )
        (layer_norm_2): LayerNorm((768,), eps=1e-06, elementwise_affine=True)
        (dropout): Dropout(p=0.0, inplace=False)
      )
      (3): TransformerBlock(
        (mha): MultiHeadAttention(
          (query_layer): Linear(in_features=768, out_features=768, bias=True)
          (key_layer): Linear(in_features=768, out_features=768, bias=True)
          (value_layer): Linear(in_features=768, out_features=768, bias=True)
          (out_proj): Linear(in_features=768, out_features=768, bias=True)
          (dropout): Dropout(p=0.0, inplace=False)
        )
        (layer_norm_1): LayerNorm((768,), eps=1e-06, elementwise_affine=True)
        (pos_wise_ff_layer): PositionWiseFeedForward(
          (pos_wise_feed_forward): Sequential(
            (0): Linear(in_features=768, out_features=3072, bias=True)
            (1): GELU()
            (2): Dropout(p=0.0, inplace=False)
            (3): Linear(in_features=3072, out_features=768, bias=True)
            (4): Dropout(p=0.0, inplace=False)
          )
        )
        (layer_norm_2): LayerNorm((768,), eps=1e-06, elementwise_affine=True)
        (dropout): Dropout(p=0.0, inplace=False)
      )
      (4): TransformerBlock(
        (mha): MultiHeadAttention(
          (query_layer): Linear(in_features=768, out_features=768, bias=True)
          (key_layer): Linear(in_features=768, out_features=768, bias=True)
          (value_layer): Linear(in_features=768, out_features=768, bias=True)
          (out_proj): Linear(in_features=768, out_features=768, bias=True)
          (dropout): Dropout(p=0.0, inplace=False)
        )
        (layer_norm_1): LayerNorm((768,), eps=1e-06, elementwise_affine=True)
        (pos_wise_ff_layer): PositionWiseFeedForward(
          (pos_wise_feed_forward): Sequential(
            (0): Linear(in_features=768, out_features=3072, bias=True)
            (1): GELU()
            (2): Dropout(p=0.0, inplace=False)
            (3): Linear(in_features=3072, out_features=768, bias=True)
            (4): Dropout(p=0.0, inplace=False)
          )
        )
        (layer_norm_2): LayerNorm((768,), eps=1e-06, elementwise_affine=True)
        (dropout): Dropout(p=0.0, inplace=False)
      )
      (5): TransformerBlock(
        (mha): MultiHeadAttention(
          (query_layer): Linear(in_features=768, out_features=768, bias=True)
          (key_layer): Linear(in_features=768, out_features=768, bias=True)
          (value_layer): Linear(in_features=768, out_features=768, bias=True)
          (out_proj): Linear(in_features=768, out_features=768, bias=True)
          (dropout): Dropout(p=0.0, inplace=False)
        )
        (layer_norm_1): LayerNorm((768,), eps=1e-06, elementwise_affine=True)
        (pos_wise_ff_layer): PositionWiseFeedForward(
          (pos_wise_feed_forward): Sequential(
            (0): Linear(in_features=768, out_features=3072, bias=True)
            (1): GELU()
            (2): Dropout(p=0.0, inplace=False)
            (3): Linear(in_features=3072, out_features=768, bias=True)
            (4): Dropout(p=0.0, inplace=False)
          )
        )
        (layer_norm_2): LayerNorm((768,), eps=1e-06, elementwise_affine=True)
        (dropout): Dropout(p=0.0, inplace=False)
      )
      (6): TransformerBlock(
        (mha): MultiHeadAttention(
          (query_layer): Linear(in_features=768, out_features=768, bias=True)
          (key_layer): Linear(in_features=768, out_features=768, bias=True)
          (value_layer): Linear(in_features=768, out_features=768, bias=True)
          (out_proj): Linear(in_features=768, out_features=768, bias=True)
          (dropout): Dropout(p=0.0, inplace=False)
        )
        (layer_norm_1): LayerNorm((768,), eps=1e-06, elementwise_affine=True)
        (pos_wise_ff_layer): PositionWiseFeedForward(
          (pos_wise_feed_forward): Sequential(
            (0): Linear(in_features=768, out_features=3072, bias=True)
            (1): GELU()
            (2): Dropout(p=0.0, inplace=False)
            (3): Linear(in_features=3072, out_features=768, bias=True)
            (4): Dropout(p=0.0, inplace=False)
          )
        )
        (layer_norm_2): LayerNorm((768,), eps=1e-06, elementwise_affine=True)
        (dropout): Dropout(p=0.0, inplace=False)
      )
      (7): TransformerBlock(
        (mha): MultiHeadAttention(
          (query_layer): Linear(in_features=768, out_features=768, bias=True)
          (key_layer): Linear(in_features=768, out_features=768, bias=True)
          (value_layer): Linear(in_features=768, out_features=768, bias=True)
          (out_proj): Linear(in_features=768, out_features=768, bias=True)
          (dropout): Dropout(p=0.0, inplace=False)
        )
        (layer_norm_1): LayerNorm((768,), eps=1e-06, elementwise_affine=True)
        (pos_wise_ff_layer): PositionWiseFeedForward(
          (pos_wise_feed_forward): Sequential(
            (0): Linear(in_features=768, out_features=3072, bias=True)
            (1): GELU()
            (2): Dropout(p=0.0, inplace=False)
            (3): Linear(in_features=3072, out_features=768, bias=True)
            (4): Dropout(p=0.0, inplace=False)
          )
        )
        (layer_norm_2): LayerNorm((768,), eps=1e-06, elementwise_affine=True)
        (dropout): Dropout(p=0.0, inplace=False)
      )
      (8): TransformerBlock(
        (mha): MultiHeadAttention(
          (query_layer): Linear(in_features=768, out_features=768, bias=True)
          (key_layer): Linear(in_features=768, out_features=768, bias=True)
          (value_layer): Linear(in_features=768, out_features=768, bias=True)
          (out_proj): Linear(in_features=768, out_features=768, bias=True)
          (dropout): Dropout(p=0.0, inplace=False)
        )
        (layer_norm_1): LayerNorm((768,), eps=1e-06, elementwise_affine=True)
        (pos_wise_ff_layer): PositionWiseFeedForward(
          (pos_wise_feed_forward): Sequential(
            (0): Linear(in_features=768, out_features=3072, bias=True)
            (1): GELU()
            (2): Dropout(p=0.0, inplace=False)
            (3): Linear(in_features=3072, out_features=768, bias=True)
            (4): Dropout(p=0.0, inplace=False)
          )
        )
        (layer_norm_2): LayerNorm((768,), eps=1e-06, elementwise_affine=True)
        (dropout): Dropout(p=0.0, inplace=False)
      )
      (9): TransformerBlock(
        (mha): MultiHeadAttention(
          (query_layer): Linear(in_features=768, out_features=768, bias=True)
          (key_layer): Linear(in_features=768, out_features=768, bias=True)
          (value_layer): Linear(in_features=768, out_features=768, bias=True)
          (out_proj): Linear(in_features=768, out_features=768, bias=True)
          (dropout): Dropout(p=0.0, inplace=False)
        )
        (layer_norm_1): LayerNorm((768,), eps=1e-06, elementwise_affine=True)
        (pos_wise_ff_layer): PositionWiseFeedForward(
          (pos_wise_feed_forward): Sequential(
            (0): Linear(in_features=768, out_features=3072, bias=True)
            (1): GELU()
            (2): Dropout(p=0.0, inplace=False)
            (3): Linear(in_features=3072, out_features=768, bias=True)
            (4): Dropout(p=0.0, inplace=False)
          )
        )
        (layer_norm_2): LayerNorm((768,), eps=1e-06, elementwise_affine=True)
        (dropout): Dropout(p=0.0, inplace=False)
      )
      (10): TransformerBlock(
        (mha): MultiHeadAttention(
          (query_layer): Linear(in_features=768, out_features=768, bias=True)
          (key_layer): Linear(in_features=768, out_features=768, bias=True)
          (value_layer): Linear(in_features=768, out_features=768, bias=True)
          (out_proj): Linear(in_features=768, out_features=768, bias=True)
          (dropout): Dropout(p=0.0, inplace=False)
        )
        (layer_norm_1): LayerNorm((768,), eps=1e-06, elementwise_affine=True)
        (pos_wise_ff_layer): PositionWiseFeedForward(
          (pos_wise_feed_forward): Sequential(
            (0): Linear(in_features=768, out_features=3072, bias=True)
            (1): GELU()
            (2): Dropout(p=0.0, inplace=False)
            (3): Linear(in_features=3072, out_features=768, bias=True)
            (4): Dropout(p=0.0, inplace=False)
          )
        )
        (layer_norm_2): LayerNorm((768,), eps=1e-06, elementwise_affine=True)
        (dropout): Dropout(p=0.0, inplace=False)
      )
      (11): TransformerBlock(
        (mha): MultiHeadAttention(
          (query_layer): Linear(in_features=768, out_features=768, bias=True)
          (key_layer): Linear(in_features=768, out_features=768, bias=True)
          (value_layer): Linear(in_features=768, out_features=768, bias=True)
          (out_proj): Linear(in_features=768, out_features=768, bias=True)
          (dropout): Dropout(p=0.0, inplace=False)
        )
        (layer_norm_1): LayerNorm((768,), eps=1e-06, elementwise_affine=True)
        (pos_wise_ff_layer): PositionWiseFeedForward(
          (pos_wise_feed_forward): Sequential(
            (0): Linear(in_features=768, out_features=3072, bias=True)
            (1): GELU()
            (2): Dropout(p=0.0, inplace=False)
            (3): Linear(in_features=3072, out_features=768, bias=True)
            (4): Dropout(p=0.0, inplace=False)
          )
        )
        (layer_norm_2): LayerNorm((768,), eps=1e-06, elementwise_affine=True)
        (dropout): Dropout(p=0.0, inplace=False)
      )
    )
  )
  (final_layer_norm): LayerNorm((768,), eps=1e-06, elementwise_affine=True)
)
Experiment:  vit-b-16-cifar10-full-train-fine-broad-separate-sgd-no-autoaug_1693290021
Starting Train/Eval...
Starting Epoch:  0

Epoch: 0
Mode: MODE.TRAIN
Losses: 0.6720523834228516
Metrics: {'Acc@1': 0.5}
Best Acc@1 till now: -1


Epoch: 0
Mode: MODE.EVAL
Losses: 0.4312545955181122
Metrics: {'Acc@1': 0.5}
Best Acc@1 till now: -1

Model CKPT saved at: ./checkpoints/vit-b-16-cifar10-full-train-fine-broad-separate-sgd-no-autoaug_1693290021.pt
…
Best Acc@1 till now: 0.25


Epoch: 4
Mode: MODE.EVAL
Losses: 1.9468594789505005
Metrics: {'Acc@1': 0.5}
Best Acc@1 till now: 0.25

Eval Metrics increased from :0.25 -> 0.5
Model CKPT saved at: ./checkpoints/vit-b-16-cifar10-full-train-fine-broad-separate-sgd-no-autoaug_1693291129.pt
Epoch took 9.04 s
Final Model saved @ ./checkpoints/vit-b-16-cifar10-full-train-fine-broad-separate-sgd-no-autoaug_1693291129.pt
************************************************************************************************************************
ViTBasicForImageClassification(
  (embedding_layer): Sequential(
    (0): Conv2d(3, 768, kernel_size=(16, 16), stride=(16, 16))
    (1): Rearrange('b d ph pw -> b (ph pw) d')
  )
  (additional_class_tokens): ParameterList(
      (0): Parameter containing: [torch.float32 of size 1x1x768 (GPU 0)]
      (1): Parameter containing: [torch.float32 of size 1x1x768 (GPU 0)]
  )
  (mlp_heads): ModuleList(
    (0): Linear(in_features=768, out_features=2, bias=True)
    (1): Linear(in_features=768, out_features=10, bias=True)
  )
  (positional_embedding): PositionalEmbedding1D()
  (transformer_encoder): TransformerEncoder(
    (tf_blocks): ModuleList(
      (0-11): 12 x TransformerBlock(
        (mha): MultiHeadAttention(
          (query_layer): Linear(in_features=768, out_features=768, bias=True)
          (key_layer): Linear(in_features=768, out_features=768, bias=True)
          (value_layer): Linear(in_features=768, out_features=768, bias=True)
          (out_proj): Linear(in_features=768, out_features=768, bias=True)
          (dropout): Dropout(p=0.0, inplace=False)
        )
        (layer_norm_1): LayerNorm((768,), eps=1e-06, elementwise_affine=True)
        (pos_wise_ff_layer): PositionWiseFeedForward(
          (pos_wise_feed_forward): Sequential(
            (0): Linear(in_features=768, out_features=3072, bias=True)
            (1): GELU(approximate='none')
            (2): Dropout(p=0.0, inplace=False)
            (3): Linear(in_features=3072, out_features=768, bias=True)
            (4): Dropout(p=0.0, inplace=False)
          )
        )
        (layer_norm_2): LayerNorm((768,), eps=1e-06, elementwise_affine=True)
        (dropout): Dropout(p=0.0, inplace=False)
      )
    )
  )
  (final_layer_norm): LayerNorm((768,), eps=1e-06, elementwise_affine=True)
)
Experiment:  vit-b-16-cifar10-full-train-fine-broad-separate-sgd-no-autoaug_1693291616
Starting Broad Class Training...
Starting Train/Eval...

Epoch: 0
Mode: MODE.TRAIN
Losses: 0.5287978649139404
Metrics: {'Acc@1': 0.75}
Best Acc@1 till now: -1

Train Metrics increased from :-1 -> 0.75

Epoch: 0
Mode: MODE.EVAL
Losses: 0.3233562707901001
Metrics: {'Acc@1': 0.75}
…
Losses: 1.753561178590082
Metrics: {'Acc@1': 0.3633559}
Best Acc@1 till now: 0.3394705355167389

Eval Metrics increased from: 0.3394705355167389 -> 0.3633559048175812
Model CKPT saved at: ./checkpoints/vit-b-16-cifar10-full-train-fine-broad-separate-sgd-no-autoaug_1693543629.pt
Epoch took 1017.09 s
Final Model saved @ ./checkpoints/vit-b-16-cifar10-full-train-fine-broad-separate-sgd-no-autoaug_1693543629.pt
************************************************************************************************************************
ViTBasicForImageClassification(
  (embedding_layer): Sequential(
    (0): Conv2d(3, 768, kernel_size=(16, 16), stride=(16, 16))
    (1): Rearrange('b d ph pw -> b (ph pw) d')
  )
  (additional_class_tokens): ParameterList(
      (0): Parameter containing: [torch.float32 of size 1x1x768 (GPU 0)]
      (1): Parameter containing: [torch.float32 of size 1x1x768 (GPU 0)]
  )
  (mlp_heads): ModuleList(
    (0): Linear(in_features=768, out_features=2, bias=True)
    (1): Linear(in_features=768, out_features=10, bias=True)
  )
  (positional_embedding): PositionalEmbedding1D()
  (transformer_encoder): TransformerEncoder(
    (tf_blocks): ModuleList(
      (0-11): 12 x TransformerBlock(
        (mha): MultiHeadAttention(
          (query_layer): Linear(in_features=768, out_features=768, bias=True)
          (key_layer): Linear(in_features=768, out_features=768, bias=True)
          (value_layer): Linear(in_features=768, out_features=768, bias=True)
          (out_proj): Linear(in_features=768, out_features=768, bias=True)
          (dropout): Dropout(p=0.0, inplace=False)
        )
        (layer_norm_1): LayerNorm((768,), eps=1e-06, elementwise_affine=True)
        (pos_wise_ff_layer): PositionWiseFeedForward(
          (pos_wise_feed_forward): Sequential(
            (0): Linear(in_features=768, out_features=3072, bias=True)
            (1): GELU(approximate='none')
            (2): Dropout(p=0.0, inplace=False)
            (3): Linear(in_features=3072, out_features=768, bias=True)
            (4): Dropout(p=0.0, inplace=False)
          )
        )
        (layer_norm_2): LayerNorm((768,), eps=1e-06, elementwise_affine=True)
        (dropout): Dropout(p=0.0, inplace=False)
      )
    )
  )
  (final_layer_norm): LayerNorm((768,), eps=1e-06, elementwise_affine=True)
)
Experiment:  vit-b-16-cifar10-full-train-fine-broad-alternate-30-epochs_1693557923
Starting Broad Fine Alternate Class Training...
Starting Train/Eval...
************************************************************************************************************************
ViTBasicForImageClassification(
  (embedding_layer): Sequential(
    (0): Conv2d(3, 768, kernel_size=(16, 16), stride=(16, 16))
    (1): Rearrange('b d ph pw -> b (ph pw) d')
  )
  (additional_class_tokens): ParameterList(
      (0): Parameter containing: [torch.float32 of size 1x1x768 (GPU 0)]
      (1): Parameter containing: [torch.float32 of size 1x1x768 (GPU 0)]
  )
  (mlp_heads): ModuleList(
    (0): Linear(in_features=768, out_features=2, bias=True)
    (1): Linear(in_features=768, out_features=10, bias=True)
  )
  (positional_embedding): PositionalEmbedding1D()
  (transformer_encoder): TransformerEncoder(
    (tf_blocks): ModuleList(
      (0-11): 12 x TransformerBlock(
        (mha): MultiHeadAttention(
          (query_layer): Linear(in_features=768, out_features=768, bias=True)
          (key_layer): Linear(in_features=768, out_features=768, bias=True)
          (value_layer): Linear(in_features=768, out_features=768, bias=True)
          (out_proj): Linear(in_features=768, out_features=768, bias=True)
          (dropout): Dropout(p=0.0, inplace=False)
        )
        (layer_norm_1): LayerNorm((768,), eps=1e-06, elementwise_affine=True)
        (pos_wise_ff_layer): PositionWiseFeedForward(
          (pos_wise_feed_forward): Sequential(
            (0): Linear(in_features=768, out_features=3072, bias=True)
            (1): GELU(approximate='none')
            (2): Dropout(p=0.0, inplace=False)
            (3): Linear(in_features=3072, out_features=768, bias=True)
            (4): Dropout(p=0.0, inplace=False)
          )
        )
        (layer_norm_2): LayerNorm((768,), eps=1e-06, elementwise_affine=True)
        (dropout): Dropout(p=0.0, inplace=False)
      )
    )
  )
  (final_layer_norm): LayerNorm((768,), eps=1e-06, elementwise_affine=True)
)
Experiment:  vit-b-16-cifar10-full-train-fine-broad-alternate-30-epochs_1693558155
Starting Broad Fine Alternate Class Training...
Starting Train/Eval...
