************************************************************************************************************************
Started at:  2023_09_24_14_15_37
TPDualVit(
  (fine_model): TPVitImageClassification(
    (embedding_layer): Sequential(
      (0): Conv2d(3, 768, kernel_size=(16, 16), stride=(16, 16))
      (1): Rearrange('b d ph pw -> b (ph pw) d')
    )
    (additional_class_tokens): ParameterList(  (0): Parameter containing: [torch.float32 of size 1x1x768])
    (mlp_heads): ModuleList(
      (0): Linear(in_features=768, out_features=10, bias=True)
    )
    (positional_embedding): PositionalEmbedding1D()
    (transformer_encoder): TPTransformerEncoder(
      (tf_blocks): ModuleList(
        (0-11): 12 x TPTransformerBlock(
          (mha): TPMHA(
            (query_layer): Linear(in_features=768, out_features=768, bias=True)
            (key_layer): Linear(in_features=768, out_features=768, bias=True)
            (value_layer): Linear(in_features=768, out_features=768, bias=True)
            (out_proj): Linear(in_features=768, out_features=768, bias=True)
            (dropout): Dropout(p=0.1, inplace=False)
            (repr_layer): Linear(in_features=768, out_features=768, bias=True)
          )
          (layer_norm_1): LayerNorm((768,), eps=1e-06, elementwise_affine=True)
          (pos_wise_ff_layer): PositionWiseFeedForward(
            (pos_wise_feed_forward): Sequential(
              (0): Linear(in_features=768, out_features=3072, bias=True)
              (1): GELU(approximate='none')
              (2): Dropout(p=0.1, inplace=False)
              (3): Linear(in_features=3072, out_features=768, bias=True)
              (4): Dropout(p=0.1, inplace=False)
            )
          )
          (layer_norm_2): LayerNorm((768,), eps=1e-06, elementwise_affine=True)
          (dropout): Dropout(p=0.1, inplace=False)
        )
      )
    )
    (final_layer_norm): LayerNorm((768,), eps=1e-06, elementwise_affine=True)
  )
  (broad_model): ViTForImageClassification(
    (vit): ViTModel(
      (embeddings): ViTEmbeddings(
        (patch_embeddings): ViTPatchEmbeddings(
          (projection): Conv2d(3, 768, kernel_size=(16, 16), stride=(16, 16))
        )
        (dropout): Dropout(p=0.0, inplace=False)
      )
      (encoder): ViTEncoder(
        (layer): ModuleList(
          (0-11): 12 x ViTLayer(
            (attention): ViTAttention(
              (attention): ViTSelfAttention(
                (query): Linear(in_features=768, out_features=768, bias=True)
                (key): Linear(in_features=768, out_features=768, bias=True)
                (value): Linear(in_features=768, out_features=768, bias=True)
                (dropout): Dropout(p=0.0, inplace=False)
              )
              (output): ViTSelfOutput(
                (dense): Linear(in_features=768, out_features=768, bias=True)
                (dropout): Dropout(p=0.0, inplace=False)
              )
            )
            (intermediate): ViTIntermediate(
              (dense): Linear(in_features=768, out_features=3072, bias=True)
              (intermediate_act_fn): GELUActivation()
            )
            (output): ViTOutput(
              (dense): Linear(in_features=3072, out_features=768, bias=True)
              (dropout): Dropout(p=0.0, inplace=False)
            )
            (layernorm_before): LayerNorm((768,), eps=1e-12, elementwise_affine=True)
            (layernorm_after): LayerNorm((768,), eps=1e-12, elementwise_affine=True)
          )
        )
      )
      (layernorm): LayerNorm((768,), eps=1e-12, elementwise_affine=True)
    )
    (classifier): Linear(in_features=768, out_features=2, bias=True)
  )
)
Experiment:  tf-vit-dual-model-p-16-huggingface-pretrained-google-weights-broad-only_1695545141
Starting Dual Model Training Training with Modified Loss ...
Starting Train/Eval...

CURR EPOCH:  0

Epoch: 0 Summary
Mode: MODE.TRAIN
Losses: [0.06665524 0.42723703]
Metrics: {'Acc@1_broad': 0.97586, 'Acc@1_fine': 0.85086}
Best Acc@1_fine till now: -1

Train Metrics increased from: -1 -> 0.8508599996566772
…
